DistributionalCounterfactualTransport(
  (sig_networks): ModuleList(
    (0): Sequential(
      (0): Sequential(
        (0): Linear(in_features=21, out_features=256, bias=True)
        (1): ELU(alpha=1.0)
        (2): AlphaDropout(p=0.25, inplace=False)
      )
      (1): Sequential(
        (0): Linear(in_features=256, out_features=256, bias=True)
        (1): ELU(alpha=1.0)
        (2): AlphaDropout(p=0.25, inplace=False)
      )
    )
    (1): Sequential(
      (0): Sequential(
        (0): Linear(in_features=32, out_features=256, bias=True)
        (1): ELU(alpha=1.0)
        (2): AlphaDropout(p=0.25, inplace=False)
      )
      (1): Sequential(
        (0): Linear(in_features=256, out_features=256, bias=True)
        (1): ELU(alpha=1.0)
        (2): AlphaDropout(p=0.25, inplace=False)
      )
    )
    (2): Sequential(
      (0): Sequential(
        (0): Linear(in_features=11, out_features=256, bias=True)
        (1): ELU(alpha=1.0)
        (2): AlphaDropout(p=0.25, inplace=False)
      )
      (1): Sequential(
        (0): Linear(in_features=256, out_features=256, bias=True)
        (1): ELU(alpha=1.0)
        (2): AlphaDropout(p=0.25, inplace=False)
      )
    )
    (3): Sequential(
      (0): Sequential(
        (0): Linear(in_features=5, out_features=256, bias=True)
        (1): ELU(alpha=1.0)
        (2): AlphaDropout(p=0.25, inplace=False)
      )
      (1): Sequential(
        (0): Linear(in_features=256, out_features=256, bias=True)
        (1): ELU(alpha=1.0)
        (2): AlphaDropout(p=0.25, inplace=False)
      )
    )
    (4): Sequential(
      (0): Sequential(
        (0): Linear(in_features=23, out_features=256, bias=True)
        (1): ELU(alpha=1.0)
        (2): AlphaDropout(p=0.25, inplace=False)
      )
      (1): Sequential(
        (0): Linear(in_features=256, out_features=256, bias=True)
        (1): ELU(alpha=1.0)
        (2): AlphaDropout(p=0.25, inplace=False)
      )
    )
    (5): Sequential(
      (0): Sequential(
        (0): Linear(in_features=64, out_features=256, bias=True)
        (1): ELU(alpha=1.0)
        (2): AlphaDropout(p=0.25, inplace=False)
      )
      (1): Sequential(
        (0): Linear(in_features=256, out_features=256, bias=True)
        (1): ELU(alpha=1.0)
        (2): AlphaDropout(p=0.25, inplace=False)
      )
    )
    (6): Sequential(
      (0): Sequential(
        (0): Linear(in_features=18, out_features=256, bias=True)
        (1): ELU(alpha=1.0)
        (2): AlphaDropout(p=0.25, inplace=False)
      )
      (1): Sequential(
        (0): Linear(in_features=256, out_features=256, bias=True)
        (1): ELU(alpha=1.0)
        (2): AlphaDropout(p=0.25, inplace=False)
      )
    )
    (7): Sequential(
      (0): Sequential(
        (0): Linear(in_features=1, out_features=256, bias=True)
        (1): ELU(alpha=1.0)
        (2): AlphaDropout(p=0.25, inplace=False)
      )
      (1): Sequential(
        (0): Linear(in_features=256, out_features=256, bias=True)
        (1): ELU(alpha=1.0)
        (2): AlphaDropout(p=0.25, inplace=False)
      )
    )
    (8): Sequential(
      (0): Sequential(
        (0): Linear(in_features=2, out_features=256, bias=True)
        (1): ELU(alpha=1.0)
        (2): AlphaDropout(p=0.25, inplace=False)
      )
      (1): Sequential(
        (0): Linear(in_features=256, out_features=256, bias=True)
        (1): ELU(alpha=1.0)
        (2): AlphaDropout(p=0.25, inplace=False)
      )
    )
    (9): Sequential(
      (0): Sequential(
        (0): Linear(in_features=14, out_features=256, bias=True)
        (1): ELU(alpha=1.0)
        (2): AlphaDropout(p=0.25, inplace=False)
      )
      (1): Sequential(
        (0): Linear(in_features=256, out_features=256, bias=True)
        (1): ELU(alpha=1.0)
        (2): AlphaDropout(p=0.25, inplace=False)
      )
    )
    (10): Sequential(
      (0): Sequential(
        (0): Linear(in_features=2, out_features=256, bias=True)
        (1): ELU(alpha=1.0)
        (2): AlphaDropout(p=0.25, inplace=False)
      )
      (1): Sequential(
        (0): Linear(in_features=256, out_features=256, bias=True)
        (1): ELU(alpha=1.0)
        (2): AlphaDropout(p=0.25, inplace=False)
      )
    )
    (11): Sequential(
      (0): Sequential(
        (0): Linear(in_features=5, out_features=256, bias=True)
        (1): ELU(alpha=1.0)
        (2): AlphaDropout(p=0.25, inplace=False)
      )
      (1): Sequential(
        (0): Linear(in_features=256, out_features=256, bias=True)
        (1): ELU(alpha=1.0)
        (2): AlphaDropout(p=0.25, inplace=False)
      )
    )
    (12): Sequential(
      (0): Sequential(
        (0): Linear(in_features=4, out_features=256, bias=True)
        (1): ELU(alpha=1.0)
        (2): AlphaDropout(p=0.25, inplace=False)
      )
      (1): Sequential(
        (0): Linear(in_features=256, out_features=256, bias=True)
        (1): ELU(alpha=1.0)
        (2): AlphaDropout(p=0.25, inplace=False)
      )
    )
    (13): Sequential(
      (0): Sequential(
        (0): Linear(in_features=3, out_features=256, bias=True)
        (1): ELU(alpha=1.0)
        (2): AlphaDropout(p=0.25, inplace=False)
      )
      (1): Sequential(
        (0): Linear(in_features=256, out_features=256, bias=True)
        (1): ELU(alpha=1.0)
        (2): AlphaDropout(p=0.25, inplace=False)
      )
    )
    (14): Sequential(
      (0): Sequential(
        (0): Linear(in_features=25, out_features=256, bias=True)
        (1): ELU(alpha=1.0)
        (2): AlphaDropout(p=0.25, inplace=False)
      )
      (1): Sequential(
        (0): Linear(in_features=256, out_features=256, bias=True)
        (1): ELU(alpha=1.0)
        (2): AlphaDropout(p=0.25, inplace=False)
      )
    )
    (15): Sequential(
      (0): Sequential(
        (0): Linear(in_features=6, out_features=256, bias=True)
        (1): ELU(alpha=1.0)
        (2): AlphaDropout(p=0.25, inplace=False)
      )
      (1): Sequential(
        (0): Linear(in_features=256, out_features=256, bias=True)
        (1): ELU(alpha=1.0)
        (2): AlphaDropout(p=0.25, inplace=False)
      )
    )
    (16): Sequential(
      (0): Sequential(
        (0): Linear(in_features=4, out_features=256, bias=True)
        (1): ELU(alpha=1.0)
        (2): AlphaDropout(p=0.25, inplace=False)
      )
      (1): Sequential(
        (0): Linear(in_features=256, out_features=256, bias=True)
        (1): ELU(alpha=1.0)
        (2): AlphaDropout(p=0.25, inplace=False)
      )
    )
    (17): Sequential(
      (0): Sequential(
        (0): Linear(in_features=3, out_features=256, bias=True)
        (1): ELU(alpha=1.0)
        (2): AlphaDropout(p=0.25, inplace=False)
      )
      (1): Sequential(
        (0): Linear(in_features=256, out_features=256, bias=True)
        (1): ELU(alpha=1.0)
        (2): AlphaDropout(p=0.25, inplace=False)
      )
    )
    (18-19): 2 x Sequential(
      (0): Sequential(
        (0): Linear(in_features=10, out_features=256, bias=True)
        (1): ELU(alpha=1.0)
        (2): AlphaDropout(p=0.25, inplace=False)
      )
      (1): Sequential(
        (0): Linear(in_features=256, out_features=256, bias=True)
        (1): ELU(alpha=1.0)
        (2): AlphaDropout(p=0.25, inplace=False)
      )
    )
    (20-21): 2 x Sequential(
      (0): Sequential(
        (0): Linear(in_features=4, out_features=256, bias=True)
        (1): ELU(alpha=1.0)
        (2): AlphaDropout(p=0.25, inplace=False)
      )
      (1): Sequential(
        (0): Linear(in_features=256, out_features=256, bias=True)
        (1): ELU(alpha=1.0)
        (2): AlphaDropout(p=0.25, inplace=False)
      )
    )
    (22): Sequential(
      (0): Sequential(
        (0): Linear(in_features=3, out_features=256, bias=True)
        (1): ELU(alpha=1.0)
        (2): AlphaDropout(p=0.25, inplace=False)
      )
      (1): Sequential(
        (0): Linear(in_features=256, out_features=256, bias=True)
        (1): ELU(alpha=1.0)
        (2): AlphaDropout(p=0.25, inplace=False)
      )
    )
    (23): Sequential(
      (0): Sequential(
        (0): Linear(in_features=10, out_features=256, bias=True)
        (1): ELU(alpha=1.0)
        (2): AlphaDropout(p=0.25, inplace=False)
      )
      (1): Sequential(
        (0): Linear(in_features=256, out_features=256, bias=True)
        (1): ELU(alpha=1.0)
        (2): AlphaDropout(p=0.25, inplace=False)
      )
    )
    (24): Sequential(
      (0): Sequential(
        (0): Linear(in_features=17, out_features=256, bias=True)
        (1): ELU(alpha=1.0)
        (2): AlphaDropout(p=0.25, inplace=False)
      )
      (1): Sequential(
        (0): Linear(in_features=256, out_features=256, bias=True)
        (1): ELU(alpha=1.0)
        (2): AlphaDropout(p=0.25, inplace=False)
      )
    )
    (25): Sequential(
      (0): Sequential(
        (0): Linear(in_features=3, out_features=256, bias=True)
        (1): ELU(alpha=1.0)
        (2): AlphaDropout(p=0.25, inplace=False)
      )
      (1): Sequential(
        (0): Linear(in_features=256, out_features=256, bias=True)
        (1): ELU(alpha=1.0)
        (2): AlphaDropout(p=0.25, inplace=False)
      )
    )
    (26): Sequential(
      (0): Sequential(
        (0): Linear(in_features=1, out_features=256, bias=True)
        (1): ELU(alpha=1.0)
        (2): AlphaDropout(p=0.25, inplace=False)
      )
      (1): Sequential(
        (0): Linear(in_features=256, out_features=256, bias=True)
        (1): ELU(alpha=1.0)
        (2): AlphaDropout(p=0.25, inplace=False)
      )
    )
    (27): Sequential(
      (0): Sequential(
        (0): Linear(in_features=4, out_features=256, bias=True)
        (1): ELU(alpha=1.0)
        (2): AlphaDropout(p=0.25, inplace=False)
      )
      (1): Sequential(
        (0): Linear(in_features=256, out_features=256, bias=True)
        (1): ELU(alpha=1.0)
        (2): AlphaDropout(p=0.25, inplace=False)
      )
    )
    (28): Sequential(
      (0): Sequential(
        (0): Linear(in_features=63, out_features=256, bias=True)
        (1): ELU(alpha=1.0)
        (2): AlphaDropout(p=0.25, inplace=False)
      )
      (1): Sequential(
        (0): Linear(in_features=256, out_features=256, bias=True)
        (1): ELU(alpha=1.0)
        (2): AlphaDropout(p=0.25, inplace=False)
      )
    )
    (29): Sequential(
      (0): Sequential(
        (0): Linear(in_features=4, out_features=256, bias=True)
        (1): ELU(alpha=1.0)
        (2): AlphaDropout(p=0.25, inplace=False)
      )
      (1): Sequential(
        (0): Linear(in_features=256, out_features=256, bias=True)
        (1): ELU(alpha=1.0)
        (2): AlphaDropout(p=0.25, inplace=False)
      )
    )
    (30): Sequential(
      (0): Sequential(
        (0): Linear(in_features=7, out_features=256, bias=True)
        (1): ELU(alpha=1.0)
        (2): AlphaDropout(p=0.25, inplace=False)
      )
      (1): Sequential(
        (0): Linear(in_features=256, out_features=256, bias=True)
        (1): ELU(alpha=1.0)
        (2): AlphaDropout(p=0.25, inplace=False)
      )
    )
    (31): Sequential(
      (0): Sequential(
        (0): Linear(in_features=44, out_features=256, bias=True)
        (1): ELU(alpha=1.0)
        (2): AlphaDropout(p=0.25, inplace=False)
      )
      (1): Sequential(
        (0): Linear(in_features=256, out_features=256, bias=True)
        (1): ELU(alpha=1.0)
        (2): AlphaDropout(p=0.25, inplace=False)
      )
    )
    (32): Sequential(
      (0): Sequential(
        (0): Linear(in_features=25, out_features=256, bias=True)
        (1): ELU(alpha=1.0)
        (2): AlphaDropout(p=0.25, inplace=False)
      )
      (1): Sequential(
        (0): Linear(in_features=256, out_features=256, bias=True)
        (1): ELU(alpha=1.0)
        (2): AlphaDropout(p=0.25, inplace=False)
      )
    )
    (33): Sequential(
      (0): Sequential(
        (0): Linear(in_features=3, out_features=256, bias=True)
        (1): ELU(alpha=1.0)
        (2): AlphaDropout(p=0.25, inplace=False)
      )
      (1): Sequential(
        (0): Linear(in_features=256, out_features=256, bias=True)
        (1): ELU(alpha=1.0)
        (2): AlphaDropout(p=0.25, inplace=False)
      )
    )
    (34-36): 3 x Sequential(
      (0): Sequential(
        (0): Linear(in_features=5, out_features=256, bias=True)
        (1): ELU(alpha=1.0)
        (2): AlphaDropout(p=0.25, inplace=False)
      )
      (1): Sequential(
        (0): Linear(in_features=256, out_features=256, bias=True)
        (1): ELU(alpha=1.0)
        (2): AlphaDropout(p=0.25, inplace=False)
      )
    )
    (37): Sequential(
      (0): Sequential(
        (0): Linear(in_features=3, out_features=256, bias=True)
        (1): ELU(alpha=1.0)
        (2): AlphaDropout(p=0.25, inplace=False)
      )
      (1): Sequential(
        (0): Linear(in_features=256, out_features=256, bias=True)
        (1): ELU(alpha=1.0)
        (2): AlphaDropout(p=0.25, inplace=False)
      )
    )
    (38): Sequential(
      (0): Sequential(
        (0): Linear(in_features=5, out_features=256, bias=True)
        (1): ELU(alpha=1.0)
        (2): AlphaDropout(p=0.25, inplace=False)
      )
      (1): Sequential(
        (0): Linear(in_features=256, out_features=256, bias=True)
        (1): ELU(alpha=1.0)
        (2): AlphaDropout(p=0.25, inplace=False)
      )
    )
    (39): Sequential(
      (0): Sequential(
        (0): Linear(in_features=3, out_features=256, bias=True)
        (1): ELU(alpha=1.0)
        (2): AlphaDropout(p=0.25, inplace=False)
      )
      (1): Sequential(
        (0): Linear(in_features=256, out_features=256, bias=True)
        (1): ELU(alpha=1.0)
        (2): AlphaDropout(p=0.25, inplace=False)
      )
    )
    (40-41): 2 x Sequential(
      (0): Sequential(
        (0): Linear(in_features=14, out_features=256, bias=True)
        (1): ELU(alpha=1.0)
        (2): AlphaDropout(p=0.25, inplace=False)
      )
      (1): Sequential(
        (0): Linear(in_features=256, out_features=256, bias=True)
        (1): ELU(alpha=1.0)
        (2): AlphaDropout(p=0.25, inplace=False)
      )
    )
    (42): Sequential(
      (0): Sequential(
        (0): Linear(in_features=17, out_features=256, bias=True)
        (1): ELU(alpha=1.0)
        (2): AlphaDropout(p=0.25, inplace=False)
      )
      (1): Sequential(
        (0): Linear(in_features=256, out_features=256, bias=True)
        (1): ELU(alpha=1.0)
        (2): AlphaDropout(p=0.25, inplace=False)
      )
    )
    (43): Sequential(
      (0): Sequential(
        (0): Linear(in_features=2, out_features=256, bias=True)
        (1): ELU(alpha=1.0)
        (2): AlphaDropout(p=0.25, inplace=False)
      )
      (1): Sequential(
        (0): Linear(in_features=256, out_features=256, bias=True)
        (1): ELU(alpha=1.0)
        (2): AlphaDropout(p=0.25, inplace=False)
      )
    )
    (44): Sequential(
      (0): Sequential(
        (0): Linear(in_features=9, out_features=256, bias=True)
        (1): ELU(alpha=1.0)
        (2): AlphaDropout(p=0.25, inplace=False)
      )
      (1): Sequential(
        (0): Linear(in_features=256, out_features=256, bias=True)
        (1): ELU(alpha=1.0)
        (2): AlphaDropout(p=0.25, inplace=False)
      )
    )
    (45): Sequential(
      (0): Sequential(
        (0): Linear(in_features=2, out_features=256, bias=True)
        (1): ELU(alpha=1.0)
        (2): AlphaDropout(p=0.25, inplace=False)
      )
      (1): Sequential(
        (0): Linear(in_features=256, out_features=256, bias=True)
        (1): ELU(alpha=1.0)
        (2): AlphaDropout(p=0.25, inplace=False)
      )
    )
    (46): Sequential(
      (0): Sequential(
        (0): Linear(in_features=6, out_features=256, bias=True)
        (1): ELU(alpha=1.0)
        (2): AlphaDropout(p=0.25, inplace=False)
      )
      (1): Sequential(
        (0): Linear(in_features=256, out_features=256, bias=True)
        (1): ELU(alpha=1.0)
        (2): AlphaDropout(p=0.25, inplace=False)
      )
    )
    (47): Sequential(
      (0): Sequential(
        (0): Linear(in_features=1, out_features=256, bias=True)
        (1): ELU(alpha=1.0)
        (2): AlphaDropout(p=0.25, inplace=False)
      )
      (1): Sequential(
        (0): Linear(in_features=256, out_features=256, bias=True)
        (1): ELU(alpha=1.0)
        (2): AlphaDropout(p=0.25, inplace=False)
      )
    )
    (48): Sequential(
      (0): Sequential(
        (0): Linear(in_features=5, out_features=256, bias=True)
        (1): ELU(alpha=1.0)
        (2): AlphaDropout(p=0.25, inplace=False)
      )
      (1): Sequential(
        (0): Linear(in_features=256, out_features=256, bias=True)
        (1): ELU(alpha=1.0)
        (2): AlphaDropout(p=0.25, inplace=False)
      )
    )
    (49): Sequential(
      (0): Sequential(
        (0): Linear(in_features=3, out_features=256, bias=True)
        (1): ELU(alpha=1.0)
        (2): AlphaDropout(p=0.25, inplace=False)
      )
      (1): Sequential(
        (0): Linear(in_features=256, out_features=256, bias=True)
        (1): ELU(alpha=1.0)
        (2): AlphaDropout(p=0.25, inplace=False)
      )
    )
    (50): Sequential(
      (0): Sequential(
        (0): Linear(in_features=6, out_features=256, bias=True)
        (1): ELU(alpha=1.0)
        (2): AlphaDropout(p=0.25, inplace=False)
      )
      (1): Sequential(
        (0): Linear(in_features=256, out_features=256, bias=True)
        (1): ELU(alpha=1.0)
        (2): AlphaDropout(p=0.25, inplace=False)
      )
    )
    (51): Sequential(
      (0): Sequential(
        (0): Linear(in_features=69, out_features=256, bias=True)
        (1): ELU(alpha=1.0)
        (2): AlphaDropout(p=0.25, inplace=False)
      )
      (1): Sequential(
        (0): Linear(in_features=256, out_features=256, bias=True)
        (1): ELU(alpha=1.0)
        (2): AlphaDropout(p=0.25, inplace=False)
      )
    )
    (52): Sequential(
      (0): Sequential(
        (0): Linear(in_features=4, out_features=256, bias=True)
        (1): ELU(alpha=1.0)
        (2): AlphaDropout(p=0.25, inplace=False)
      )
      (1): Sequential(
        (0): Linear(in_features=256, out_features=256, bias=True)
        (1): ELU(alpha=1.0)
        (2): AlphaDropout(p=0.25, inplace=False)
      )
    )
    (53-54): 2 x Sequential(
      (0): Sequential(
        (0): Linear(in_features=19, out_features=256, bias=True)
        (1): ELU(alpha=1.0)
        (2): AlphaDropout(p=0.25, inplace=False)
      )
      (1): Sequential(
        (0): Linear(in_features=256, out_features=256, bias=True)
        (1): ELU(alpha=1.0)
        (2): AlphaDropout(p=0.25, inplace=False)
      )
    )
    (55-56): 2 x Sequential(
      (0): Sequential(
        (0): Linear(in_features=3, out_features=256, bias=True)
        (1): ELU(alpha=1.0)
        (2): AlphaDropout(p=0.25, inplace=False)
      )
      (1): Sequential(
        (0): Linear(in_features=256, out_features=256, bias=True)
        (1): ELU(alpha=1.0)
        (2): AlphaDropout(p=0.25, inplace=False)
      )
    )
    (57-58): 2 x Sequential(
      (0): Sequential(
        (0): Linear(in_features=2, out_features=256, bias=True)
        (1): ELU(alpha=1.0)
        (2): AlphaDropout(p=0.25, inplace=False)
      )
      (1): Sequential(
        (0): Linear(in_features=256, out_features=256, bias=True)
        (1): ELU(alpha=1.0)
        (2): AlphaDropout(p=0.25, inplace=False)
      )
    )
    (59): Sequential(
      (0): Sequential(
        (0): Linear(in_features=17, out_features=256, bias=True)
        (1): ELU(alpha=1.0)
        (2): AlphaDropout(p=0.25, inplace=False)
      )
      (1): Sequential(
        (0): Linear(in_features=256, out_features=256, bias=True)
        (1): ELU(alpha=1.0)
        (2): AlphaDropout(p=0.25, inplace=False)
      )
    )
    (60): Sequential(
      (0): Sequential(
        (0): Linear(in_features=14, out_features=256, bias=True)
        (1): ELU(alpha=1.0)
        (2): AlphaDropout(p=0.25, inplace=False)
      )
      (1): Sequential(
        (0): Linear(in_features=256, out_features=256, bias=True)
        (1): ELU(alpha=1.0)
        (2): AlphaDropout(p=0.25, inplace=False)
      )
    )
    (61-62): 2 x Sequential(
      (0): Sequential(
        (0): Linear(in_features=11, out_features=256, bias=True)
        (1): ELU(alpha=1.0)
        (2): AlphaDropout(p=0.25, inplace=False)
      )
      (1): Sequential(
        (0): Linear(in_features=256, out_features=256, bias=True)
        (1): ELU(alpha=1.0)
        (2): AlphaDropout(p=0.25, inplace=False)
      )
    )
    (63): Sequential(
      (0): Sequential(
        (0): Linear(in_features=4, out_features=256, bias=True)
        (1): ELU(alpha=1.0)
        (2): AlphaDropout(p=0.25, inplace=False)
      )
      (1): Sequential(
        (0): Linear(in_features=256, out_features=256, bias=True)
        (1): ELU(alpha=1.0)
        (2): AlphaDropout(p=0.25, inplace=False)
      )
    )
    (64): Sequential(
      (0): Sequential(
        (0): Linear(in_features=48, out_features=256, bias=True)
        (1): ELU(alpha=1.0)
        (2): AlphaDropout(p=0.25, inplace=False)
      )
      (1): Sequential(
        (0): Linear(in_features=256, out_features=256, bias=True)
        (1): ELU(alpha=1.0)
        (2): AlphaDropout(p=0.25, inplace=False)
      )
    )
    (65): Sequential(
      (0): Sequential(
        (0): Linear(in_features=5, out_features=256, bias=True)
        (1): ELU(alpha=1.0)
        (2): AlphaDropout(p=0.25, inplace=False)
      )
      (1): Sequential(
        (0): Linear(in_features=256, out_features=256, bias=True)
        (1): ELU(alpha=1.0)
        (2): AlphaDropout(p=0.25, inplace=False)
      )
    )
    (66): Sequential(
      (0): Sequential(
        (0): Linear(in_features=2, out_features=256, bias=True)
        (1): ELU(alpha=1.0)
        (2): AlphaDropout(p=0.25, inplace=False)
      )
      (1): Sequential(
        (0): Linear(in_features=256, out_features=256, bias=True)
        (1): ELU(alpha=1.0)
        (2): AlphaDropout(p=0.25, inplace=False)
      )
    )
    (67): Sequential(
      (0): Sequential(
        (0): Linear(in_features=6, out_features=256, bias=True)
        (1): ELU(alpha=1.0)
        (2): AlphaDropout(p=0.25, inplace=False)
      )
      (1): Sequential(
        (0): Linear(in_features=256, out_features=256, bias=True)
        (1): ELU(alpha=1.0)
        (2): AlphaDropout(p=0.25, inplace=False)
      )
    )
    (68): Sequential(
      (0): Sequential(
        (0): Linear(in_features=15, out_features=256, bias=True)
        (1): ELU(alpha=1.0)
        (2): AlphaDropout(p=0.25, inplace=False)
      )
      (1): Sequential(
        (0): Linear(in_features=256, out_features=256, bias=True)
        (1): ELU(alpha=1.0)
        (2): AlphaDropout(p=0.25, inplace=False)
      )
    )
    (69-70): 2 x Sequential(
      (0): Sequential(
        (0): Linear(in_features=2, out_features=256, bias=True)
        (1): ELU(alpha=1.0)
        (2): AlphaDropout(p=0.25, inplace=False)
      )
      (1): Sequential(
        (0): Linear(in_features=256, out_features=256, bias=True)
        (1): ELU(alpha=1.0)
        (2): AlphaDropout(p=0.25, inplace=False)
      )
    )
    (71): Sequential(
      (0): Sequential(
        (0): Linear(in_features=3, out_features=256, bias=True)
        (1): ELU(alpha=1.0)
        (2): AlphaDropout(p=0.25, inplace=False)
      )
      (1): Sequential(
        (0): Linear(in_features=256, out_features=256, bias=True)
        (1): ELU(alpha=1.0)
        (2): AlphaDropout(p=0.25, inplace=False)
      )
    )
    (72-74): 3 x Sequential(
      (0): Sequential(
        (0): Linear(in_features=17, out_features=256, bias=True)
        (1): ELU(alpha=1.0)
        (2): AlphaDropout(p=0.25, inplace=False)
      )
      (1): Sequential(
        (0): Linear(in_features=256, out_features=256, bias=True)
        (1): ELU(alpha=1.0)
        (2): AlphaDropout(p=0.25, inplace=False)
      )
    )
    (75): Sequential(
      (0): Sequential(
        (0): Linear(in_features=4, out_features=256, bias=True)
        (1): ELU(alpha=1.0)
        (2): AlphaDropout(p=0.25, inplace=False)
      )
      (1): Sequential(
        (0): Linear(in_features=256, out_features=256, bias=True)
        (1): ELU(alpha=1.0)
        (2): AlphaDropout(p=0.25, inplace=False)
      )
    )
    (76): Sequential(
      (0): Sequential(
        (0): Linear(in_features=5, out_features=256, bias=True)
        (1): ELU(alpha=1.0)
        (2): AlphaDropout(p=0.25, inplace=False)
      )
      (1): Sequential(
        (0): Linear(in_features=256, out_features=256, bias=True)
        (1): ELU(alpha=1.0)
        (2): AlphaDropout(p=0.25, inplace=False)
      )
    )
    (77): Sequential(
      (0): Sequential(
        (0): Linear(in_features=9, out_features=256, bias=True)
        (1): ELU(alpha=1.0)
        (2): AlphaDropout(p=0.25, inplace=False)
      )
      (1): Sequential(
        (0): Linear(in_features=256, out_features=256, bias=True)
        (1): ELU(alpha=1.0)
        (2): AlphaDropout(p=0.25, inplace=False)
      )
    )
    (78): Sequential(
      (0): Sequential(
        (0): Linear(in_features=20, out_features=256, bias=True)
        (1): ELU(alpha=1.0)
        (2): AlphaDropout(p=0.25, inplace=False)
      )
      (1): Sequential(
        (0): Linear(in_features=256, out_features=256, bias=True)
        (1): ELU(alpha=1.0)
        (2): AlphaDropout(p=0.25, inplace=False)
      )
    )
    (79): Sequential(
      (0): Sequential(
        (0): Linear(in_features=5, out_features=256, bias=True)
        (1): ELU(alpha=1.0)
        (2): AlphaDropout(p=0.25, inplace=False)
      )
      (1): Sequential(
        (0): Linear(in_features=256, out_features=256, bias=True)
        (1): ELU(alpha=1.0)
        (2): AlphaDropout(p=0.25, inplace=False)
      )
    )
    (80): Sequential(
      (0): Sequential(
        (0): Linear(in_features=6, out_features=256, bias=True)
        (1): ELU(alpha=1.0)
        (2): AlphaDropout(p=0.25, inplace=False)
      )
      (1): Sequential(
        (0): Linear(in_features=256, out_features=256, bias=True)
        (1): ELU(alpha=1.0)
        (2): AlphaDropout(p=0.25, inplace=False)
      )
    )
    (81): Sequential(
      (0): Sequential(
        (0): Linear(in_features=1, out_features=256, bias=True)
        (1): ELU(alpha=1.0)
        (2): AlphaDropout(p=0.25, inplace=False)
      )
      (1): Sequential(
        (0): Linear(in_features=256, out_features=256, bias=True)
        (1): ELU(alpha=1.0)
        (2): AlphaDropout(p=0.25, inplace=False)
      )
    )
    (82-83): 2 x Sequential(
      (0): Sequential(
        (0): Linear(in_features=5, out_features=256, bias=True)
        (1): ELU(alpha=1.0)
        (2): AlphaDropout(p=0.25, inplace=False)
      )
      (1): Sequential(
        (0): Linear(in_features=256, out_features=256, bias=True)
        (1): ELU(alpha=1.0)
        (2): AlphaDropout(p=0.25, inplace=False)
      )
    )
    (84): Sequential(
      (0): Sequential(
        (0): Linear(in_features=14, out_features=256, bias=True)
        (1): ELU(alpha=1.0)
        (2): AlphaDropout(p=0.25, inplace=False)
      )
      (1): Sequential(
        (0): Linear(in_features=256, out_features=256, bias=True)
        (1): ELU(alpha=1.0)
        (2): AlphaDropout(p=0.25, inplace=False)
      )
    )
    (85-86): 2 x Sequential(
      (0): Sequential(
        (0): Linear(in_features=2, out_features=256, bias=True)
        (1): ELU(alpha=1.0)
        (2): AlphaDropout(p=0.25, inplace=False)
      )
      (1): Sequential(
        (0): Linear(in_features=256, out_features=256, bias=True)
        (1): ELU(alpha=1.0)
        (2): AlphaDropout(p=0.25, inplace=False)
      )
    )
    (87): Sequential(
      (0): Sequential(
        (0): Linear(in_features=8, out_features=256, bias=True)
        (1): ELU(alpha=1.0)
        (2): AlphaDropout(p=0.25, inplace=False)
      )
      (1): Sequential(
        (0): Linear(in_features=256, out_features=256, bias=True)
        (1): ELU(alpha=1.0)
        (2): AlphaDropout(p=0.25, inplace=False)
      )
    )
    (88): Sequential(
      (0): Sequential(
        (0): Linear(in_features=2, out_features=256, bias=True)
        (1): ELU(alpha=1.0)
        (2): AlphaDropout(p=0.25, inplace=False)
      )
      (1): Sequential(
        (0): Linear(in_features=256, out_features=256, bias=True)
        (1): ELU(alpha=1.0)
        (2): AlphaDropout(p=0.25, inplace=False)
      )
    )
    (89): Sequential(
      (0): Sequential(
        (0): Linear(in_features=4, out_features=256, bias=True)
        (1): ELU(alpha=1.0)
        (2): AlphaDropout(p=0.25, inplace=False)
      )
      (1): Sequential(
        (0): Linear(in_features=256, out_features=256, bias=True)
        (1): ELU(alpha=1.0)
        (2): AlphaDropout(p=0.25, inplace=False)
      )
    )
    (90): Sequential(
      (0): Sequential(
        (0): Linear(in_features=3, out_features=256, bias=True)
        (1): ELU(alpha=1.0)
        (2): AlphaDropout(p=0.25, inplace=False)
      )
      (1): Sequential(
        (0): Linear(in_features=256, out_features=256, bias=True)
        (1): ELU(alpha=1.0)
        (2): AlphaDropout(p=0.25, inplace=False)
      )
    )
    (91): Sequential(
      (0): Sequential(
        (0): Linear(in_features=15, out_features=256, bias=True)
        (1): ELU(alpha=1.0)
        (2): AlphaDropout(p=0.25, inplace=False)
      )
      (1): Sequential(
        (0): Linear(in_features=256, out_features=256, bias=True)
        (1): ELU(alpha=1.0)
        (2): AlphaDropout(p=0.25, inplace=False)
      )
    )
    (92): Sequential(
      (0): Sequential(
        (0): Linear(in_features=1, out_features=256, bias=True)
        (1): ELU(alpha=1.0)
        (2): AlphaDropout(p=0.25, inplace=False)
      )
      (1): Sequential(
        (0): Linear(in_features=256, out_features=256, bias=True)
        (1): ELU(alpha=1.0)
        (2): AlphaDropout(p=0.25, inplace=False)
      )
    )
    (93): Sequential(
      (0): Sequential(
        (0): Linear(in_features=4, out_features=256, bias=True)
        (1): ELU(alpha=1.0)
        (2): AlphaDropout(p=0.25, inplace=False)
      )
      (1): Sequential(
        (0): Linear(in_features=256, out_features=256, bias=True)
        (1): ELU(alpha=1.0)
        (2): AlphaDropout(p=0.25, inplace=False)
      )
    )
    (94): Sequential(
      (0): Sequential(
        (0): Linear(in_features=2, out_features=256, bias=True)
        (1): ELU(alpha=1.0)
        (2): AlphaDropout(p=0.25, inplace=False)
      )
      (1): Sequential(
        (0): Linear(in_features=256, out_features=256, bias=True)
        (1): ELU(alpha=1.0)
        (2): AlphaDropout(p=0.25, inplace=False)
      )
    )
    (95): Sequential(
      (0): Sequential(
        (0): Linear(in_features=20, out_features=256, bias=True)
        (1): ELU(alpha=1.0)
        (2): AlphaDropout(p=0.25, inplace=False)
      )
      (1): Sequential(
        (0): Linear(in_features=256, out_features=256, bias=True)
        (1): ELU(alpha=1.0)
        (2): AlphaDropout(p=0.25, inplace=False)
      )
    )
    (96): Sequential(
      (0): Sequential(
        (0): Linear(in_features=3, out_features=256, bias=True)
        (1): ELU(alpha=1.0)
        (2): AlphaDropout(p=0.25, inplace=False)
      )
      (1): Sequential(
        (0): Linear(in_features=256, out_features=256, bias=True)
        (1): ELU(alpha=1.0)
        (2): AlphaDropout(p=0.25, inplace=False)
      )
    )
    (97): Sequential(
      (0): Sequential(
        (0): Linear(in_features=27, out_features=256, bias=True)
        (1): ELU(alpha=1.0)
        (2): AlphaDropout(p=0.25, inplace=False)
      )
      (1): Sequential(
        (0): Linear(in_features=256, out_features=256, bias=True)
        (1): ELU(alpha=1.0)
        (2): AlphaDropout(p=0.25, inplace=False)
      )
    )
    (98): Sequential(
      (0): Sequential(
        (0): Linear(in_features=29, out_features=256, bias=True)
        (1): ELU(alpha=1.0)
        (2): AlphaDropout(p=0.25, inplace=False)
      )
      (1): Sequential(
        (0): Linear(in_features=256, out_features=256, bias=True)
        (1): ELU(alpha=1.0)
        (2): AlphaDropout(p=0.25, inplace=False)
      )
    )
    (99-100): 2 x Sequential(
      (0): Sequential(
        (0): Linear(in_features=2, out_features=256, bias=True)
        (1): ELU(alpha=1.0)
        (2): AlphaDropout(p=0.25, inplace=False)
      )
      (1): Sequential(
        (0): Linear(in_features=256, out_features=256, bias=True)
        (1): ELU(alpha=1.0)
        (2): AlphaDropout(p=0.25, inplace=False)
      )
    )
    (101): Sequential(
      (0): Sequential(
        (0): Linear(in_features=19, out_features=256, bias=True)
        (1): ELU(alpha=1.0)
        (2): AlphaDropout(p=0.25, inplace=False)
      )
      (1): Sequential(
        (0): Linear(in_features=256, out_features=256, bias=True)
        (1): ELU(alpha=1.0)
        (2): AlphaDropout(p=0.25, inplace=False)
      )
    )
    (102): Sequential(
      (0): Sequential(
        (0): Linear(in_features=3, out_features=256, bias=True)
        (1): ELU(alpha=1.0)
        (2): AlphaDropout(p=0.25, inplace=False)
      )
      (1): Sequential(
        (0): Linear(in_features=256, out_features=256, bias=True)
        (1): ELU(alpha=1.0)
        (2): AlphaDropout(p=0.25, inplace=False)
      )
    )
    (103): Sequential(
      (0): Sequential(
        (0): Linear(in_features=1, out_features=256, bias=True)
        (1): ELU(alpha=1.0)
        (2): AlphaDropout(p=0.25, inplace=False)
      )
      (1): Sequential(
        (0): Linear(in_features=256, out_features=256, bias=True)
        (1): ELU(alpha=1.0)
        (2): AlphaDropout(p=0.25, inplace=False)
      )
    )
    (104): Sequential(
      (0): Sequential(
        (0): Linear(in_features=9, out_features=256, bias=True)
        (1): ELU(alpha=1.0)
        (2): AlphaDropout(p=0.25, inplace=False)
      )
      (1): Sequential(
        (0): Linear(in_features=256, out_features=256, bias=True)
        (1): ELU(alpha=1.0)
        (2): AlphaDropout(p=0.25, inplace=False)
      )
    )
    (105): Sequential(
      (0): Sequential(
        (0): Linear(in_features=1, out_features=256, bias=True)
        (1): ELU(alpha=1.0)
        (2): AlphaDropout(p=0.25, inplace=False)
      )
      (1): Sequential(
        (0): Linear(in_features=256, out_features=256, bias=True)
        (1): ELU(alpha=1.0)
        (2): AlphaDropout(p=0.25, inplace=False)
      )
    )
    (106): Sequential(
      (0): Sequential(
        (0): Linear(in_features=7, out_features=256, bias=True)
        (1): ELU(alpha=1.0)
        (2): AlphaDropout(p=0.25, inplace=False)
      )
      (1): Sequential(
        (0): Linear(in_features=256, out_features=256, bias=True)
        (1): ELU(alpha=1.0)
        (2): AlphaDropout(p=0.25, inplace=False)
      )
    )
    (107): Sequential(
      (0): Sequential(
        (0): Linear(in_features=32, out_features=256, bias=True)
        (1): ELU(alpha=1.0)
        (2): AlphaDropout(p=0.25, inplace=False)
      )
      (1): Sequential(
        (0): Linear(in_features=256, out_features=256, bias=True)
        (1): ELU(alpha=1.0)
        (2): AlphaDropout(p=0.25, inplace=False)
      )
    )
    (108): Sequential(
      (0): Sequential(
        (0): Linear(in_features=10, out_features=256, bias=True)
        (1): ELU(alpha=1.0)
        (2): AlphaDropout(p=0.25, inplace=False)
      )
      (1): Sequential(
        (0): Linear(in_features=256, out_features=256, bias=True)
        (1): ELU(alpha=1.0)
        (2): AlphaDropout(p=0.25, inplace=False)
      )
    )
    (109): Sequential(
      (0): Sequential(
        (0): Linear(in_features=16, out_features=256, bias=True)
        (1): ELU(alpha=1.0)
        (2): AlphaDropout(p=0.25, inplace=False)
      )
      (1): Sequential(
        (0): Linear(in_features=256, out_features=256, bias=True)
        (1): ELU(alpha=1.0)
        (2): AlphaDropout(p=0.25, inplace=False)
      )
    )
    (110): Sequential(
      (0): Sequential(
        (0): Linear(in_features=8, out_features=256, bias=True)
        (1): ELU(alpha=1.0)
        (2): AlphaDropout(p=0.25, inplace=False)
      )
      (1): Sequential(
        (0): Linear(in_features=256, out_features=256, bias=True)
        (1): ELU(alpha=1.0)
        (2): AlphaDropout(p=0.25, inplace=False)
      )
    )
    (111): Sequential(
      (0): Sequential(
        (0): Linear(in_features=5, out_features=256, bias=True)
        (1): ELU(alpha=1.0)
        (2): AlphaDropout(p=0.25, inplace=False)
      )
      (1): Sequential(
        (0): Linear(in_features=256, out_features=256, bias=True)
        (1): ELU(alpha=1.0)
        (2): AlphaDropout(p=0.25, inplace=False)
      )
    )
    (112): Sequential(
      (0): Sequential(
        (0): Linear(in_features=1, out_features=256, bias=True)
        (1): ELU(alpha=1.0)
        (2): AlphaDropout(p=0.25, inplace=False)
      )
      (1): Sequential(
        (0): Linear(in_features=256, out_features=256, bias=True)
        (1): ELU(alpha=1.0)
        (2): AlphaDropout(p=0.25, inplace=False)
      )
    )
    (113): Sequential(
      (0): Sequential(
        (0): Linear(in_features=188, out_features=256, bias=True)
        (1): ELU(alpha=1.0)
        (2): AlphaDropout(p=0.25, inplace=False)
      )
      (1): Sequential(
        (0): Linear(in_features=256, out_features=256, bias=True)
        (1): ELU(alpha=1.0)
        (2): AlphaDropout(p=0.25, inplace=False)
      )
    )
    (114): Sequential(
      (0): Sequential(
        (0): Linear(in_features=194, out_features=256, bias=True)
        (1): ELU(alpha=1.0)
        (2): AlphaDropout(p=0.25, inplace=False)
      )
      (1): Sequential(
        (0): Linear(in_features=256, out_features=256, bias=True)
        (1): ELU(alpha=1.0)
        (2): AlphaDropout(p=0.25, inplace=False)
      )
    )
    (115): Sequential(
      (0): Sequential(
        (0): Linear(in_features=95, out_features=256, bias=True)
        (1): ELU(alpha=1.0)
        (2): AlphaDropout(p=0.25, inplace=False)
      )
      (1): Sequential(
        (0): Linear(in_features=256, out_features=256, bias=True)
        (1): ELU(alpha=1.0)
        (2): AlphaDropout(p=0.25, inplace=False)
      )
    )
    (116): Sequential(
      (0): Sequential(
        (0): Linear(in_features=35, out_features=256, bias=True)
        (1): ELU(alpha=1.0)
        (2): AlphaDropout(p=0.25, inplace=False)
      )
      (1): Sequential(
        (0): Linear(in_features=256, out_features=256, bias=True)
        (1): ELU(alpha=1.0)
        (2): AlphaDropout(p=0.25, inplace=False)
      )
    )
    (117): Sequential(
      (0): Sequential(
        (0): Linear(in_features=191, out_features=256, bias=True)
        (1): ELU(alpha=1.0)
        (2): AlphaDropout(p=0.25, inplace=False)
      )
      (1): Sequential(
        (0): Linear(in_features=256, out_features=256, bias=True)
        (1): ELU(alpha=1.0)
        (2): AlphaDropout(p=0.25, inplace=False)
      )
    )
    (118): Sequential(
      (0): Sequential(
        (0): Linear(in_features=42, out_features=256, bias=True)
        (1): ELU(alpha=1.0)
        (2): AlphaDropout(p=0.25, inplace=False)
      )
      (1): Sequential(
        (0): Linear(in_features=256, out_features=256, bias=True)
        (1): ELU(alpha=1.0)
        (2): AlphaDropout(p=0.25, inplace=False)
      )
    )
    (119): Sequential(
      (0): Sequential(
        (0): Linear(in_features=156, out_features=256, bias=True)
        (1): ELU(alpha=1.0)
        (2): AlphaDropout(p=0.25, inplace=False)
      )
      (1): Sequential(
        (0): Linear(in_features=256, out_features=256, bias=True)
        (1): ELU(alpha=1.0)
        (2): AlphaDropout(p=0.25, inplace=False)
      )
    )
    (120): Sequential(
      (0): Sequential(
        (0): Linear(in_features=111, out_features=256, bias=True)
        (1): ELU(alpha=1.0)
        (2): AlphaDropout(p=0.25, inplace=False)
      )
      (1): Sequential(
        (0): Linear(in_features=256, out_features=256, bias=True)
        (1): ELU(alpha=1.0)
        (2): AlphaDropout(p=0.25, inplace=False)
      )
    )
    (121): Sequential(
      (0): Sequential(
        (0): Linear(in_features=70, out_features=256, bias=True)
        (1): ELU(alpha=1.0)
        (2): AlphaDropout(p=0.25, inplace=False)
      )
      (1): Sequential(
        (0): Linear(in_features=256, out_features=256, bias=True)
        (1): ELU(alpha=1.0)
        (2): AlphaDropout(p=0.25, inplace=False)
      )
    )
    (122): Sequential(
      (0): Sequential(
        (0): Linear(in_features=135, out_features=256, bias=True)
        (1): ELU(alpha=1.0)
        (2): AlphaDropout(p=0.25, inplace=False)
      )
      (1): Sequential(
        (0): Linear(in_features=256, out_features=256, bias=True)
        (1): ELU(alpha=1.0)
        (2): AlphaDropout(p=0.25, inplace=False)
      )
    )
    (123): Sequential(
      (0): Sequential(
        (0): Linear(in_features=193, out_features=256, bias=True)
        (1): ELU(alpha=1.0)
        (2): AlphaDropout(p=0.25, inplace=False)
      )
      (1): Sequential(
        (0): Linear(in_features=256, out_features=256, bias=True)
        (1): ELU(alpha=1.0)
        (2): AlphaDropout(p=0.25, inplace=False)
      )
    )
    (124): Sequential(
      (0): Sequential(
        (0): Linear(in_features=138, out_features=256, bias=True)
        (1): ELU(alpha=1.0)
        (2): AlphaDropout(p=0.25, inplace=False)
      )
      (1): Sequential(
        (0): Linear(in_features=256, out_features=256, bias=True)
        (1): ELU(alpha=1.0)
        (2): AlphaDropout(p=0.25, inplace=False)
      )
    )
    (125): Sequential(
      (0): Sequential(
        (0): Linear(in_features=184, out_features=256, bias=True)
        (1): ELU(alpha=1.0)
        (2): AlphaDropout(p=0.25, inplace=False)
      )
      (1): Sequential(
        (0): Linear(in_features=256, out_features=256, bias=True)
        (1): ELU(alpha=1.0)
        (2): AlphaDropout(p=0.25, inplace=False)
      )
    )
    (126): Sequential(
      (0): Sequential(
        (0): Linear(in_features=193, out_features=256, bias=True)
        (1): ELU(alpha=1.0)
        (2): AlphaDropout(p=0.25, inplace=False)
      )
      (1): Sequential(
        (0): Linear(in_features=256, out_features=256, bias=True)
        (1): ELU(alpha=1.0)
        (2): AlphaDropout(p=0.25, inplace=False)
      )
    )
    (127): Sequential(
      (0): Sequential(
        (0): Linear(in_features=190, out_features=256, bias=True)
        (1): ELU(alpha=1.0)
        (2): AlphaDropout(p=0.25, inplace=False)
      )
      (1): Sequential(
        (0): Linear(in_features=256, out_features=256, bias=True)
        (1): ELU(alpha=1.0)
        (2): AlphaDropout(p=0.25, inplace=False)
      )
    )
    (128): Sequential(
      (0): Sequential(
        (0): Linear(in_features=192, out_features=256, bias=True)
        (1): ELU(alpha=1.0)
        (2): AlphaDropout(p=0.25, inplace=False)
      )
      (1): Sequential(
        (0): Linear(in_features=256, out_features=256, bias=True)
        (1): ELU(alpha=1.0)
        (2): AlphaDropout(p=0.25, inplace=False)
      )
    )
    (129): Sequential(
      (0): Sequential(
        (0): Linear(in_features=152, out_features=256, bias=True)
        (1): ELU(alpha=1.0)
        (2): AlphaDropout(p=0.25, inplace=False)
      )
      (1): Sequential(
        (0): Linear(in_features=256, out_features=256, bias=True)
        (1): ELU(alpha=1.0)
        (2): AlphaDropout(p=0.25, inplace=False)
      )
    )
    (130): Sequential(
      (0): Sequential(
        (0): Linear(in_features=183, out_features=256, bias=True)
        (1): ELU(alpha=1.0)
        (2): AlphaDropout(p=0.25, inplace=False)
      )
      (1): Sequential(
        (0): Linear(in_features=256, out_features=256, bias=True)
        (1): ELU(alpha=1.0)
        (2): AlphaDropout(p=0.25, inplace=False)
      )
    )
    (131): Sequential(
      (0): Sequential(
        (0): Linear(in_features=195, out_features=256, bias=True)
        (1): ELU(alpha=1.0)
        (2): AlphaDropout(p=0.25, inplace=False)
      )
      (1): Sequential(
        (0): Linear(in_features=256, out_features=256, bias=True)
        (1): ELU(alpha=1.0)
        (2): AlphaDropout(p=0.25, inplace=False)
      )
    )
    (132): Sequential(
      (0): Sequential(
        (0): Linear(in_features=34, out_features=256, bias=True)
        (1): ELU(alpha=1.0)
        (2): AlphaDropout(p=0.25, inplace=False)
      )
      (1): Sequential(
        (0): Linear(in_features=256, out_features=256, bias=True)
        (1): ELU(alpha=1.0)
        (2): AlphaDropout(p=0.25, inplace=False)
      )
    )
    (133): Sequential(
      (0): Sequential(
        (0): Linear(in_features=188, out_features=256, bias=True)
        (1): ELU(alpha=1.0)
        (2): AlphaDropout(p=0.25, inplace=False)
      )
      (1): Sequential(
        (0): Linear(in_features=256, out_features=256, bias=True)
        (1): ELU(alpha=1.0)
        (2): AlphaDropout(p=0.25, inplace=False)
      )
    )
    (134): Sequential(
      (0): Sequential(
        (0): Linear(in_features=189, out_features=256, bias=True)
        (1): ELU(alpha=1.0)
        (2): AlphaDropout(p=0.25, inplace=False)
      )
      (1): Sequential(
        (0): Linear(in_features=256, out_features=256, bias=True)
        (1): ELU(alpha=1.0)
        (2): AlphaDropout(p=0.25, inplace=False)
      )
    )
    (135): Sequential(
      (0): Sequential(
        (0): Linear(in_features=192, out_features=256, bias=True)
        (1): ELU(alpha=1.0)
        (2): AlphaDropout(p=0.25, inplace=False)
      )
      (1): Sequential(
        (0): Linear(in_features=256, out_features=256, bias=True)
        (1): ELU(alpha=1.0)
        (2): AlphaDropout(p=0.25, inplace=False)
      )
    )
    (136): Sequential(
      (0): Sequential(
        (0): Linear(in_features=86, out_features=256, bias=True)
        (1): ELU(alpha=1.0)
        (2): AlphaDropout(p=0.25, inplace=False)
      )
      (1): Sequential(
        (0): Linear(in_features=256, out_features=256, bias=True)
        (1): ELU(alpha=1.0)
        (2): AlphaDropout(p=0.25, inplace=False)
      )
    )
    (137): Sequential(
      (0): Sequential(
        (0): Linear(in_features=195, out_features=256, bias=True)
        (1): ELU(alpha=1.0)
        (2): AlphaDropout(p=0.25, inplace=False)
      )
      (1): Sequential(
        (0): Linear(in_features=256, out_features=256, bias=True)
        (1): ELU(alpha=1.0)
        (2): AlphaDropout(p=0.25, inplace=False)
      )
    )
    (138): Sequential(
      (0): Sequential(
        (0): Linear(in_features=91, out_features=256, bias=True)
        (1): ELU(alpha=1.0)
        (2): AlphaDropout(p=0.25, inplace=False)
      )
      (1): Sequential(
        (0): Linear(in_features=256, out_features=256, bias=True)
        (1): ELU(alpha=1.0)
        (2): AlphaDropout(p=0.25, inplace=False)
      )
    )
    (139): Sequential(
      (0): Sequential(
        (0): Linear(in_features=193, out_features=256, bias=True)
        (1): ELU(alpha=1.0)
        (2): AlphaDropout(p=0.25, inplace=False)
      )
      (1): Sequential(
        (0): Linear(in_features=256, out_features=256, bias=True)
        (1): ELU(alpha=1.0)
        (2): AlphaDropout(p=0.25, inplace=False)
      )
    )
    (140): Sequential(
      (0): Sequential(
        (0): Linear(in_features=187, out_features=256, bias=True)
        (1): ELU(alpha=1.0)
        (2): AlphaDropout(p=0.25, inplace=False)
      )
      (1): Sequential(
        (0): Linear(in_features=256, out_features=256, bias=True)
        (1): ELU(alpha=1.0)
        (2): AlphaDropout(p=0.25, inplace=False)
      )
    )
    (141): Sequential(
      (0): Sequential(
        (0): Linear(in_features=192, out_features=256, bias=True)
        (1): ELU(alpha=1.0)
        (2): AlphaDropout(p=0.25, inplace=False)
      )
      (1): Sequential(
        (0): Linear(in_features=256, out_features=256, bias=True)
        (1): ELU(alpha=1.0)
        (2): AlphaDropout(p=0.25, inplace=False)
      )
    )
    (142): Sequential(
      (0): Sequential(
        (0): Linear(in_features=195, out_features=256, bias=True)
        (1): ELU(alpha=1.0)
        (2): AlphaDropout(p=0.25, inplace=False)
      )
      (1): Sequential(
        (0): Linear(in_features=256, out_features=256, bias=True)
        (1): ELU(alpha=1.0)
        (2): AlphaDropout(p=0.25, inplace=False)
      )
    )
    (143): Sequential(
      (0): Sequential(
        (0): Linear(in_features=191, out_features=256, bias=True)
        (1): ELU(alpha=1.0)
        (2): AlphaDropout(p=0.25, inplace=False)
      )
      (1): Sequential(
        (0): Linear(in_features=256, out_features=256, bias=True)
        (1): ELU(alpha=1.0)
        (2): AlphaDropout(p=0.25, inplace=False)
      )
    )
    (144): Sequential(
      (0): Sequential(
        (0): Linear(in_features=186, out_features=256, bias=True)
        (1): ELU(alpha=1.0)
        (2): AlphaDropout(p=0.25, inplace=False)
      )
      (1): Sequential(
        (0): Linear(in_features=256, out_features=256, bias=True)
        (1): ELU(alpha=1.0)
        (2): AlphaDropout(p=0.25, inplace=False)
      )
    )
    (145): Sequential(
      (0): Sequential(
        (0): Linear(in_features=55, out_features=256, bias=True)
        (1): ELU(alpha=1.0)
        (2): AlphaDropout(p=0.25, inplace=False)
      )
      (1): Sequential(
        (0): Linear(in_features=256, out_features=256, bias=True)
        (1): ELU(alpha=1.0)
        (2): AlphaDropout(p=0.25, inplace=False)
      )
    )
    (146): Sequential(
      (0): Sequential(
        (0): Linear(in_features=195, out_features=256, bias=True)
        (1): ELU(alpha=1.0)
        (2): AlphaDropout(p=0.25, inplace=False)
      )
      (1): Sequential(
        (0): Linear(in_features=256, out_features=256, bias=True)
        (1): ELU(alpha=1.0)
        (2): AlphaDropout(p=0.25, inplace=False)
      )
    )
    (147): Sequential(
      (0): Sequential(
        (0): Linear(in_features=31, out_features=256, bias=True)
        (1): ELU(alpha=1.0)
        (2): AlphaDropout(p=0.25, inplace=False)
      )
      (1): Sequential(
        (0): Linear(in_features=256, out_features=256, bias=True)
        (1): ELU(alpha=1.0)
        (2): AlphaDropout(p=0.25, inplace=False)
      )
    )
    (148): Sequential(
      (0): Sequential(
        (0): Linear(in_features=181, out_features=256, bias=True)
        (1): ELU(alpha=1.0)
        (2): AlphaDropout(p=0.25, inplace=False)
      )
      (1): Sequential(
        (0): Linear(in_features=256, out_features=256, bias=True)
        (1): ELU(alpha=1.0)
        (2): AlphaDropout(p=0.25, inplace=False)
      )
    )
    (149): Sequential(
      (0): Sequential(
        (0): Linear(in_features=189, out_features=256, bias=True)
        (1): ELU(alpha=1.0)
        (2): AlphaDropout(p=0.25, inplace=False)
      )
      (1): Sequential(
        (0): Linear(in_features=256, out_features=256, bias=True)
        (1): ELU(alpha=1.0)
        (2): AlphaDropout(p=0.25, inplace=False)
      )
    )
    (150): Sequential(
      (0): Sequential(
        (0): Linear(in_features=39, out_features=256, bias=True)
        (1): ELU(alpha=1.0)
        (2): AlphaDropout(p=0.25, inplace=False)
      )
      (1): Sequential(
        (0): Linear(in_features=256, out_features=256, bias=True)
        (1): ELU(alpha=1.0)
        (2): AlphaDropout(p=0.25, inplace=False)
      )
    )
    (151): Sequential(
      (0): Sequential(
        (0): Linear(in_features=100, out_features=256, bias=True)
        (1): ELU(alpha=1.0)
        (2): AlphaDropout(p=0.25, inplace=False)
      )
      (1): Sequential(
        (0): Linear(in_features=256, out_features=256, bias=True)
        (1): ELU(alpha=1.0)
        (2): AlphaDropout(p=0.25, inplace=False)
      )
    )
    (152): Sequential(
      (0): Sequential(
        (0): Linear(in_features=103, out_features=256, bias=True)
        (1): ELU(alpha=1.0)
        (2): AlphaDropout(p=0.25, inplace=False)
      )
      (1): Sequential(
        (0): Linear(in_features=256, out_features=256, bias=True)
        (1): ELU(alpha=1.0)
        (2): AlphaDropout(p=0.25, inplace=False)
      )
    )
    (153): Sequential(
      (0): Sequential(
        (0): Linear(in_features=94, out_features=256, bias=True)
        (1): ELU(alpha=1.0)
        (2): AlphaDropout(p=0.25, inplace=False)
      )
      (1): Sequential(
        (0): Linear(in_features=256, out_features=256, bias=True)
        (1): ELU(alpha=1.0)
        (2): AlphaDropout(p=0.25, inplace=False)
      )
    )
    (154): Sequential(
      (0): Sequential(
        (0): Linear(in_features=44, out_features=256, bias=True)
        (1): ELU(alpha=1.0)
        (2): AlphaDropout(p=0.25, inplace=False)
      )
      (1): Sequential(
        (0): Linear(in_features=256, out_features=256, bias=True)
        (1): ELU(alpha=1.0)
        (2): AlphaDropout(p=0.25, inplace=False)
      )
    )
    (155): Sequential(
      (0): Sequential(
        (0): Linear(in_features=129, out_features=256, bias=True)
        (1): ELU(alpha=1.0)
        (2): AlphaDropout(p=0.25, inplace=False)
      )
      (1): Sequential(
        (0): Linear(in_features=256, out_features=256, bias=True)
        (1): ELU(alpha=1.0)
        (2): AlphaDropout(p=0.25, inplace=False)
      )
    )
    (156): Sequential(
      (0): Sequential(
        (0): Linear(in_features=52, out_features=256, bias=True)
        (1): ELU(alpha=1.0)
        (2): AlphaDropout(p=0.25, inplace=False)
      )
      (1): Sequential(
        (0): Linear(in_features=256, out_features=256, bias=True)
        (1): ELU(alpha=1.0)
        (2): AlphaDropout(p=0.25, inplace=False)
      )
    )
    (157): Sequential(
      (0): Sequential(
        (0): Linear(in_features=195, out_features=256, bias=True)
        (1): ELU(alpha=1.0)
        (2): AlphaDropout(p=0.25, inplace=False)
      )
      (1): Sequential(
        (0): Linear(in_features=256, out_features=256, bias=True)
        (1): ELU(alpha=1.0)
        (2): AlphaDropout(p=0.25, inplace=False)
      )
    )
    (158): Sequential(
      (0): Sequential(
        (0): Linear(in_features=104, out_features=256, bias=True)
        (1): ELU(alpha=1.0)
        (2): AlphaDropout(p=0.25, inplace=False)
      )
      (1): Sequential(
        (0): Linear(in_features=256, out_features=256, bias=True)
        (1): ELU(alpha=1.0)
        (2): AlphaDropout(p=0.25, inplace=False)
      )
    )
    (159): Sequential(
      (0): Sequential(
        (0): Linear(in_features=136, out_features=256, bias=True)
        (1): ELU(alpha=1.0)
        (2): AlphaDropout(p=0.25, inplace=False)
      )
      (1): Sequential(
        (0): Linear(in_features=256, out_features=256, bias=True)
        (1): ELU(alpha=1.0)
        (2): AlphaDropout(p=0.25, inplace=False)
      )
    )
    (160): Sequential(
      (0): Sequential(
        (0): Linear(in_features=151, out_features=256, bias=True)
        (1): ELU(alpha=1.0)
        (2): AlphaDropout(p=0.25, inplace=False)
      )
      (1): Sequential(
        (0): Linear(in_features=256, out_features=256, bias=True)
        (1): ELU(alpha=1.0)
        (2): AlphaDropout(p=0.25, inplace=False)
      )
    )
    (161): Sequential(
      (0): Sequential(
        (0): Linear(in_features=40, out_features=256, bias=True)
        (1): ELU(alpha=1.0)
        (2): AlphaDropout(p=0.25, inplace=False)
      )
      (1): Sequential(
        (0): Linear(in_features=256, out_features=256, bias=True)
        (1): ELU(alpha=1.0)
        (2): AlphaDropout(p=0.25, inplace=False)
      )
    )
    (162): Sequential(
      (0): Sequential(
        (0): Linear(in_features=194, out_features=256, bias=True)
        (1): ELU(alpha=1.0)
        (2): AlphaDropout(p=0.25, inplace=False)
      )
      (1): Sequential(
        (0): Linear(in_features=256, out_features=256, bias=True)
        (1): ELU(alpha=1.0)
        (2): AlphaDropout(p=0.25, inplace=False)
      )
    )
    (163): Sequential(
      (0): Sequential(
        (0): Linear(in_features=4, out_features=256, bias=True)
        (1): ELU(alpha=1.0)
        (2): AlphaDropout(p=0.25, inplace=False)
      )
      (1): Sequential(
        (0): Linear(in_features=256, out_features=256, bias=True)
        (1): ELU(alpha=1.0)
        (2): AlphaDropout(p=0.25, inplace=False)
      )
    )
    (164): Sequential(
      (0): Sequential(
        (0): Linear(in_features=5, out_features=256, bias=True)
        (1): ELU(alpha=1.0)
        (2): AlphaDropout(p=0.25, inplace=False)
      )
      (1): Sequential(
        (0): Linear(in_features=256, out_features=256, bias=True)
        (1): ELU(alpha=1.0)
        (2): AlphaDropout(p=0.25, inplace=False)
      )
    )
    (165): Sequential(
      (0): Sequential(
        (0): Linear(in_features=8, out_features=256, bias=True)
        (1): ELU(alpha=1.0)
        (2): AlphaDropout(p=0.25, inplace=False)
      )
      (1): Sequential(
        (0): Linear(in_features=256, out_features=256, bias=True)
        (1): ELU(alpha=1.0)
        (2): AlphaDropout(p=0.25, inplace=False)
      )
    )
    (166): Sequential(
      (0): Sequential(
        (0): Linear(in_features=9, out_features=256, bias=True)
        (1): ELU(alpha=1.0)
        (2): AlphaDropout(p=0.25, inplace=False)
      )
      (1): Sequential(
        (0): Linear(in_features=256, out_features=256, bias=True)
        (1): ELU(alpha=1.0)
        (2): AlphaDropout(p=0.25, inplace=False)
      )
    )
    (167): Sequential(
      (0): Sequential(
        (0): Linear(in_features=11, out_features=256, bias=True)
        (1): ELU(alpha=1.0)
        (2): AlphaDropout(p=0.25, inplace=False)
      )
      (1): Sequential(
        (0): Linear(in_features=256, out_features=256, bias=True)
        (1): ELU(alpha=1.0)
        (2): AlphaDropout(p=0.25, inplace=False)
      )
    )
    (168): Sequential(
      (0): Sequential(
        (0): Linear(in_features=4, out_features=256, bias=True)
        (1): ELU(alpha=1.0)
        (2): AlphaDropout(p=0.25, inplace=False)
      )
      (1): Sequential(
        (0): Linear(in_features=256, out_features=256, bias=True)
        (1): ELU(alpha=1.0)
        (2): AlphaDropout(p=0.25, inplace=False)
      )
    )
    (169): Sequential(
      (0): Sequential(
        (0): Linear(in_features=11, out_features=256, bias=True)
        (1): ELU(alpha=1.0)
        (2): AlphaDropout(p=0.25, inplace=False)
      )
      (1): Sequential(
        (0): Linear(in_features=256, out_features=256, bias=True)
        (1): ELU(alpha=1.0)
        (2): AlphaDropout(p=0.25, inplace=False)
      )
    )
    (170): Sequential(
      (0): Sequential(
        (0): Linear(in_features=8, out_features=256, bias=True)
        (1): ELU(alpha=1.0)
        (2): AlphaDropout(p=0.25, inplace=False)
      )
      (1): Sequential(
        (0): Linear(in_features=256, out_features=256, bias=True)
        (1): ELU(alpha=1.0)
        (2): AlphaDropout(p=0.25, inplace=False)
      )
    )
    (171-174): 4 x Sequential(
      (0): Sequential(
        (0): Linear(in_features=10, out_features=256, bias=True)
        (1): ELU(alpha=1.0)
        (2): AlphaDropout(p=0.25, inplace=False)
      )
      (1): Sequential(
        (0): Linear(in_features=256, out_features=256, bias=True)
        (1): ELU(alpha=1.0)
        (2): AlphaDropout(p=0.25, inplace=False)
      )
    )
    (175): Sequential(
      (0): Sequential(
        (0): Linear(in_features=6, out_features=256, bias=True)
        (1): ELU(alpha=1.0)
        (2): AlphaDropout(p=0.25, inplace=False)
      )
      (1): Sequential(
        (0): Linear(in_features=256, out_features=256, bias=True)
        (1): ELU(alpha=1.0)
        (2): AlphaDropout(p=0.25, inplace=False)
      )
    )
    (176): Sequential(
      (0): Sequential(
        (0): Linear(in_features=18, out_features=256, bias=True)
        (1): ELU(alpha=1.0)
        (2): AlphaDropout(p=0.25, inplace=False)
      )
      (1): Sequential(
        (0): Linear(in_features=256, out_features=256, bias=True)
        (1): ELU(alpha=1.0)
        (2): AlphaDropout(p=0.25, inplace=False)
      )
    )
    (177): Sequential(
      (0): Sequential(
        (0): Linear(in_features=9, out_features=256, bias=True)
        (1): ELU(alpha=1.0)
        (2): AlphaDropout(p=0.25, inplace=False)
      )
      (1): Sequential(
        (0): Linear(in_features=256, out_features=256, bias=True)
        (1): ELU(alpha=1.0)
        (2): AlphaDropout(p=0.25, inplace=False)
      )
    )
    (178): Sequential(
      (0): Sequential(
        (0): Linear(in_features=25, out_features=256, bias=True)
        (1): ELU(alpha=1.0)
        (2): AlphaDropout(p=0.25, inplace=False)
      )
      (1): Sequential(
        (0): Linear(in_features=256, out_features=256, bias=True)
        (1): ELU(alpha=1.0)
        (2): AlphaDropout(p=0.25, inplace=False)
      )
    )
    (179): Sequential(
      (0): Sequential(
        (0): Linear(in_features=4, out_features=256, bias=True)
        (1): ELU(alpha=1.0)
        (2): AlphaDropout(p=0.25, inplace=False)
      )
      (1): Sequential(
        (0): Linear(in_features=256, out_features=256, bias=True)
        (1): ELU(alpha=1.0)
        (2): AlphaDropout(p=0.25, inplace=False)
      )
    )
    (180): Sequential(
      (0): Sequential(
        (0): Linear(in_features=5, out_features=256, bias=True)
        (1): ELU(alpha=1.0)
        (2): AlphaDropout(p=0.25, inplace=False)
      )
      (1): Sequential(
        (0): Linear(in_features=256, out_features=256, bias=True)
        (1): ELU(alpha=1.0)
        (2): AlphaDropout(p=0.25, inplace=False)
      )
    )
    (181-183): 3 x Sequential(
      (0): Sequential(
        (0): Linear(in_features=2, out_features=256, bias=True)
        (1): ELU(alpha=1.0)
        (2): AlphaDropout(p=0.25, inplace=False)
      )
      (1): Sequential(
        (0): Linear(in_features=256, out_features=256, bias=True)
        (1): ELU(alpha=1.0)
        (2): AlphaDropout(p=0.25, inplace=False)
      )
    )
    (184): Sequential(
      (0): Sequential(
        (0): Linear(in_features=25, out_features=256, bias=True)
        (1): ELU(alpha=1.0)
        (2): AlphaDropout(p=0.25, inplace=False)
      )
      (1): Sequential(
        (0): Linear(in_features=256, out_features=256, bias=True)
        (1): ELU(alpha=1.0)
        (2): AlphaDropout(p=0.25, inplace=False)
      )
    )
    (185): Sequential(
      (0): Sequential(
        (0): Linear(in_features=4, out_features=256, bias=True)
        (1): ELU(alpha=1.0)
        (2): AlphaDropout(p=0.25, inplace=False)
      )
      (1): Sequential(
        (0): Linear(in_features=256, out_features=256, bias=True)
        (1): ELU(alpha=1.0)
        (2): AlphaDropout(p=0.25, inplace=False)
      )
    )
    (186): Sequential(
      (0): Sequential(
        (0): Linear(in_features=13, out_features=256, bias=True)
        (1): ELU(alpha=1.0)
        (2): AlphaDropout(p=0.25, inplace=False)
      )
      (1): Sequential(
        (0): Linear(in_features=256, out_features=256, bias=True)
        (1): ELU(alpha=1.0)
        (2): AlphaDropout(p=0.25, inplace=False)
      )
    )
    (187): Sequential(
      (0): Sequential(
        (0): Linear(in_features=11, out_features=256, bias=True)
        (1): ELU(alpha=1.0)
        (2): AlphaDropout(p=0.25, inplace=False)
      )
      (1): Sequential(
        (0): Linear(in_features=256, out_features=256, bias=True)
        (1): ELU(alpha=1.0)
        (2): AlphaDropout(p=0.25, inplace=False)
      )
    )
    (188): Sequential(
      (0): Sequential(
        (0): Linear(in_features=2, out_features=256, bias=True)
        (1): ELU(alpha=1.0)
        (2): AlphaDropout(p=0.25, inplace=False)
      )
      (1): Sequential(
        (0): Linear(in_features=256, out_features=256, bias=True)
        (1): ELU(alpha=1.0)
        (2): AlphaDropout(p=0.25, inplace=False)
      )
    )
    (189): Sequential(
      (0): Sequential(
        (0): Linear(in_features=3, out_features=256, bias=True)
        (1): ELU(alpha=1.0)
        (2): AlphaDropout(p=0.25, inplace=False)
      )
      (1): Sequential(
        (0): Linear(in_features=256, out_features=256, bias=True)
        (1): ELU(alpha=1.0)
        (2): AlphaDropout(p=0.25, inplace=False)
      )
    )
    (190): Sequential(
      (0): Sequential(
        (0): Linear(in_features=7, out_features=256, bias=True)
        (1): ELU(alpha=1.0)
        (2): AlphaDropout(p=0.25, inplace=False)
      )
      (1): Sequential(
        (0): Linear(in_features=256, out_features=256, bias=True)
        (1): ELU(alpha=1.0)
        (2): AlphaDropout(p=0.25, inplace=False)
      )
    )
    (191): Sequential(
      (0): Sequential(
        (0): Linear(in_features=8, out_features=256, bias=True)
        (1): ELU(alpha=1.0)
        (2): AlphaDropout(p=0.25, inplace=False)
      )
      (1): Sequential(
        (0): Linear(in_features=256, out_features=256, bias=True)
        (1): ELU(alpha=1.0)
        (2): AlphaDropout(p=0.25, inplace=False)
      )
    )
    (192): Sequential(
      (0): Sequential(
        (0): Linear(in_features=24, out_features=256, bias=True)
        (1): ELU(alpha=1.0)
        (2): AlphaDropout(p=0.25, inplace=False)
      )
      (1): Sequential(
        (0): Linear(in_features=256, out_features=256, bias=True)
        (1): ELU(alpha=1.0)
        (2): AlphaDropout(p=0.25, inplace=False)
      )
    )
    (193): Sequential(
      (0): Sequential(
        (0): Linear(in_features=2, out_features=256, bias=True)
        (1): ELU(alpha=1.0)
        (2): AlphaDropout(p=0.25, inplace=False)
      )
      (1): Sequential(
        (0): Linear(in_features=256, out_features=256, bias=True)
        (1): ELU(alpha=1.0)
        (2): AlphaDropout(p=0.25, inplace=False)
      )
    )
    (194): Sequential(
      (0): Sequential(
        (0): Linear(in_features=8, out_features=256, bias=True)
        (1): ELU(alpha=1.0)
        (2): AlphaDropout(p=0.25, inplace=False)
      )
      (1): Sequential(
        (0): Linear(in_features=256, out_features=256, bias=True)
        (1): ELU(alpha=1.0)
        (2): AlphaDropout(p=0.25, inplace=False)
      )
    )
    (195): Sequential(
      (0): Sequential(
        (0): Linear(in_features=6, out_features=256, bias=True)
        (1): ELU(alpha=1.0)
        (2): AlphaDropout(p=0.25, inplace=False)
      )
      (1): Sequential(
        (0): Linear(in_features=256, out_features=256, bias=True)
        (1): ELU(alpha=1.0)
        (2): AlphaDropout(p=0.25, inplace=False)
      )
    )
    (196): Sequential(
      (0): Sequential(
        (0): Linear(in_features=9, out_features=256, bias=True)
        (1): ELU(alpha=1.0)
        (2): AlphaDropout(p=0.25, inplace=False)
      )
      (1): Sequential(
        (0): Linear(in_features=256, out_features=256, bias=True)
        (1): ELU(alpha=1.0)
        (2): AlphaDropout(p=0.25, inplace=False)
      )
    )
    (197): Sequential(
      (0): Sequential(
        (0): Linear(in_features=1, out_features=256, bias=True)
        (1): ELU(alpha=1.0)
        (2): AlphaDropout(p=0.25, inplace=False)
      )
      (1): Sequential(
        (0): Linear(in_features=256, out_features=256, bias=True)
        (1): ELU(alpha=1.0)
        (2): AlphaDropout(p=0.25, inplace=False)
      )
    )
    (198): Sequential(
      (0): Sequential(
        (0): Linear(in_features=7, out_features=256, bias=True)
        (1): ELU(alpha=1.0)
        (2): AlphaDropout(p=0.25, inplace=False)
      )
      (1): Sequential(
        (0): Linear(in_features=256, out_features=256, bias=True)
        (1): ELU(alpha=1.0)
        (2): AlphaDropout(p=0.25, inplace=False)
      )
    )
    (199): Sequential(
      (0): Sequential(
        (0): Linear(in_features=4, out_features=256, bias=True)
        (1): ELU(alpha=1.0)
        (2): AlphaDropout(p=0.25, inplace=False)
      )
      (1): Sequential(
        (0): Linear(in_features=256, out_features=256, bias=True)
        (1): ELU(alpha=1.0)
        (2): AlphaDropout(p=0.25, inplace=False)
      )
    )
    (200): Sequential(
      (0): Sequential(
        (0): Linear(in_features=18, out_features=256, bias=True)
        (1): ELU(alpha=1.0)
        (2): AlphaDropout(p=0.25, inplace=False)
      )
      (1): Sequential(
        (0): Linear(in_features=256, out_features=256, bias=True)
        (1): ELU(alpha=1.0)
        (2): AlphaDropout(p=0.25, inplace=False)
      )
    )
    (201): Sequential(
      (0): Sequential(
        (0): Linear(in_features=2, out_features=256, bias=True)
        (1): ELU(alpha=1.0)
        (2): AlphaDropout(p=0.25, inplace=False)
      )
      (1): Sequential(
        (0): Linear(in_features=256, out_features=256, bias=True)
        (1): ELU(alpha=1.0)
        (2): AlphaDropout(p=0.25, inplace=False)
      )
    )
    (202): Sequential(
      (0): Sequential(
        (0): Linear(in_features=5, out_features=256, bias=True)
        (1): ELU(alpha=1.0)
        (2): AlphaDropout(p=0.25, inplace=False)
      )
      (1): Sequential(
        (0): Linear(in_features=256, out_features=256, bias=True)
        (1): ELU(alpha=1.0)
        (2): AlphaDropout(p=0.25, inplace=False)
      )
    )
    (203): Sequential(
      (0): Sequential(
        (0): Linear(in_features=4, out_features=256, bias=True)
        (1): ELU(alpha=1.0)
        (2): AlphaDropout(p=0.25, inplace=False)
      )
      (1): Sequential(
        (0): Linear(in_features=256, out_features=256, bias=True)
        (1): ELU(alpha=1.0)
        (2): AlphaDropout(p=0.25, inplace=False)
      )
    )
    (204): Sequential(
      (0): Sequential(
        (0): Linear(in_features=8, out_features=256, bias=True)
        (1): ELU(alpha=1.0)
        (2): AlphaDropout(p=0.25, inplace=False)
      )
      (1): Sequential(
        (0): Linear(in_features=256, out_features=256, bias=True)
        (1): ELU(alpha=1.0)
        (2): AlphaDropout(p=0.25, inplace=False)
      )
    )
    (205): Sequential(
      (0): Sequential(
        (0): Linear(in_features=2, out_features=256, bias=True)
        (1): ELU(alpha=1.0)
        (2): AlphaDropout(p=0.25, inplace=False)
      )
      (1): Sequential(
        (0): Linear(in_features=256, out_features=256, bias=True)
        (1): ELU(alpha=1.0)
        (2): AlphaDropout(p=0.25, inplace=False)
      )
    )
    (206): Sequential(
      (0): Sequential(
        (0): Linear(in_features=1, out_features=256, bias=True)
        (1): ELU(alpha=1.0)
        (2): AlphaDropout(p=0.25, inplace=False)
      )
      (1): Sequential(
        (0): Linear(in_features=256, out_features=256, bias=True)
        (1): ELU(alpha=1.0)
        (2): AlphaDropout(p=0.25, inplace=False)
      )
    )
    (207): Sequential(
      (0): Sequential(
        (0): Linear(in_features=5, out_features=256, bias=True)
        (1): ELU(alpha=1.0)
        (2): AlphaDropout(p=0.25, inplace=False)
      )
      (1): Sequential(
        (0): Linear(in_features=256, out_features=256, bias=True)
        (1): ELU(alpha=1.0)
        (2): AlphaDropout(p=0.25, inplace=False)
      )
    )
    (208): Sequential(
      (0): Sequential(
        (0): Linear(in_features=2, out_features=256, bias=True)
        (1): ELU(alpha=1.0)
        (2): AlphaDropout(p=0.25, inplace=False)
      )
      (1): Sequential(
        (0): Linear(in_features=256, out_features=256, bias=True)
        (1): ELU(alpha=1.0)
        (2): AlphaDropout(p=0.25, inplace=False)
      )
    )
    (209): Sequential(
      (0): Sequential(
        (0): Linear(in_features=23, out_features=256, bias=True)
        (1): ELU(alpha=1.0)
        (2): AlphaDropout(p=0.25, inplace=False)
      )
      (1): Sequential(
        (0): Linear(in_features=256, out_features=256, bias=True)
        (1): ELU(alpha=1.0)
        (2): AlphaDropout(p=0.25, inplace=False)
      )
    )
    (210): Sequential(
      (0): Sequential(
        (0): Linear(in_features=3, out_features=256, bias=True)
        (1): ELU(alpha=1.0)
        (2): AlphaDropout(p=0.25, inplace=False)
      )
      (1): Sequential(
        (0): Linear(in_features=256, out_features=256, bias=True)
        (1): ELU(alpha=1.0)
        (2): AlphaDropout(p=0.25, inplace=False)
      )
    )
    (211): Sequential(
      (0): Sequential(
        (0): Linear(in_features=2, out_features=256, bias=True)
        (1): ELU(alpha=1.0)
        (2): AlphaDropout(p=0.25, inplace=False)
      )
      (1): Sequential(
        (0): Linear(in_features=256, out_features=256, bias=True)
        (1): ELU(alpha=1.0)
        (2): AlphaDropout(p=0.25, inplace=False)
      )
    )
    (212): Sequential(
      (0): Sequential(
        (0): Linear(in_features=6, out_features=256, bias=True)
        (1): ELU(alpha=1.0)
        (2): AlphaDropout(p=0.25, inplace=False)
      )
      (1): Sequential(
        (0): Linear(in_features=256, out_features=256, bias=True)
        (1): ELU(alpha=1.0)
        (2): AlphaDropout(p=0.25, inplace=False)
      )
    )
    (213): Sequential(
      (0): Sequential(
        (0): Linear(in_features=16, out_features=256, bias=True)
        (1): ELU(alpha=1.0)
        (2): AlphaDropout(p=0.25, inplace=False)
      )
      (1): Sequential(
        (0): Linear(in_features=256, out_features=256, bias=True)
        (1): ELU(alpha=1.0)
        (2): AlphaDropout(p=0.25, inplace=False)
      )
    )
    (214): Sequential(
      (0): Sequential(
        (0): Linear(in_features=4, out_features=256, bias=True)
        (1): ELU(alpha=1.0)
        (2): AlphaDropout(p=0.25, inplace=False)
      )
      (1): Sequential(
        (0): Linear(in_features=256, out_features=256, bias=True)
        (1): ELU(alpha=1.0)
        (2): AlphaDropout(p=0.25, inplace=False)
      )
    )
    (215): Sequential(
      (0): Sequential(
        (0): Linear(in_features=8, out_features=256, bias=True)
        (1): ELU(alpha=1.0)
        (2): AlphaDropout(p=0.25, inplace=False)
      )
      (1): Sequential(
        (0): Linear(in_features=256, out_features=256, bias=True)
        (1): ELU(alpha=1.0)
        (2): AlphaDropout(p=0.25, inplace=False)
      )
    )
    (216): Sequential(
      (0): Sequential(
        (0): Linear(in_features=4, out_features=256, bias=True)
        (1): ELU(alpha=1.0)
        (2): AlphaDropout(p=0.25, inplace=False)
      )
      (1): Sequential(
        (0): Linear(in_features=256, out_features=256, bias=True)
        (1): ELU(alpha=1.0)
        (2): AlphaDropout(p=0.25, inplace=False)
      )
    )
    (217): Sequential(
      (0): Sequential(
        (0): Linear(in_features=5, out_features=256, bias=True)
        (1): ELU(alpha=1.0)
        (2): AlphaDropout(p=0.25, inplace=False)
      )
      (1): Sequential(
        (0): Linear(in_features=256, out_features=256, bias=True)
        (1): ELU(alpha=1.0)
        (2): AlphaDropout(p=0.25, inplace=False)
      )
    )
    (218): Sequential(
      (0): Sequential(
        (0): Linear(in_features=6, out_features=256, bias=True)
        (1): ELU(alpha=1.0)
        (2): AlphaDropout(p=0.25, inplace=False)
      )
      (1): Sequential(
        (0): Linear(in_features=256, out_features=256, bias=True)
        (1): ELU(alpha=1.0)
        (2): AlphaDropout(p=0.25, inplace=False)
      )
    )
    (219): Sequential(
      (0): Sequential(
        (0): Linear(in_features=1, out_features=256, bias=True)
        (1): ELU(alpha=1.0)
        (2): AlphaDropout(p=0.25, inplace=False)
      )
      (1): Sequential(
        (0): Linear(in_features=256, out_features=256, bias=True)
        (1): ELU(alpha=1.0)
        (2): AlphaDropout(p=0.25, inplace=False)
      )
    )
    (220-221): 2 x Sequential(
      (0): Sequential(
        (0): Linear(in_features=6, out_features=256, bias=True)
        (1): ELU(alpha=1.0)
        (2): AlphaDropout(p=0.25, inplace=False)
      )
      (1): Sequential(
        (0): Linear(in_features=256, out_features=256, bias=True)
        (1): ELU(alpha=1.0)
        (2): AlphaDropout(p=0.25, inplace=False)
      )
    )
    (222): Sequential(
      (0): Sequential(
        (0): Linear(in_features=11, out_features=256, bias=True)
        (1): ELU(alpha=1.0)
        (2): AlphaDropout(p=0.25, inplace=False)
      )
      (1): Sequential(
        (0): Linear(in_features=256, out_features=256, bias=True)
        (1): ELU(alpha=1.0)
        (2): AlphaDropout(p=0.25, inplace=False)
      )
    )
    (223): Sequential(
      (0): Sequential(
        (0): Linear(in_features=7, out_features=256, bias=True)
        (1): ELU(alpha=1.0)
        (2): AlphaDropout(p=0.25, inplace=False)
      )
      (1): Sequential(
        (0): Linear(in_features=256, out_features=256, bias=True)
        (1): ELU(alpha=1.0)
        (2): AlphaDropout(p=0.25, inplace=False)
      )
    )
    (224): Sequential(
      (0): Sequential(
        (0): Linear(in_features=1, out_features=256, bias=True)
        (1): ELU(alpha=1.0)
        (2): AlphaDropout(p=0.25, inplace=False)
      )
      (1): Sequential(
        (0): Linear(in_features=256, out_features=256, bias=True)
        (1): ELU(alpha=1.0)
        (2): AlphaDropout(p=0.25, inplace=False)
      )
    )
    (225-226): 2 x Sequential(
      (0): Sequential(
        (0): Linear(in_features=14, out_features=256, bias=True)
        (1): ELU(alpha=1.0)
        (2): AlphaDropout(p=0.25, inplace=False)
      )
      (1): Sequential(
        (0): Linear(in_features=256, out_features=256, bias=True)
        (1): ELU(alpha=1.0)
        (2): AlphaDropout(p=0.25, inplace=False)
      )
    )
    (227): Sequential(
      (0): Sequential(
        (0): Linear(in_features=6, out_features=256, bias=True)
        (1): ELU(alpha=1.0)
        (2): AlphaDropout(p=0.25, inplace=False)
      )
      (1): Sequential(
        (0): Linear(in_features=256, out_features=256, bias=True)
        (1): ELU(alpha=1.0)
        (2): AlphaDropout(p=0.25, inplace=False)
      )
    )
    (228): Sequential(
      (0): Sequential(
        (0): Linear(in_features=4, out_features=256, bias=True)
        (1): ELU(alpha=1.0)
        (2): AlphaDropout(p=0.25, inplace=False)
      )
      (1): Sequential(
        (0): Linear(in_features=256, out_features=256, bias=True)
        (1): ELU(alpha=1.0)
        (2): AlphaDropout(p=0.25, inplace=False)
      )
    )
    (229): Sequential(
      (0): Sequential(
        (0): Linear(in_features=7, out_features=256, bias=True)
        (1): ELU(alpha=1.0)
        (2): AlphaDropout(p=0.25, inplace=False)
      )
      (1): Sequential(
        (0): Linear(in_features=256, out_features=256, bias=True)
        (1): ELU(alpha=1.0)
        (2): AlphaDropout(p=0.25, inplace=False)
      )
    )
    (230): Sequential(
      (0): Sequential(
        (0): Linear(in_features=3, out_features=256, bias=True)
        (1): ELU(alpha=1.0)
        (2): AlphaDropout(p=0.25, inplace=False)
      )
      (1): Sequential(
        (0): Linear(in_features=256, out_features=256, bias=True)
        (1): ELU(alpha=1.0)
        (2): AlphaDropout(p=0.25, inplace=False)
      )
    )
    (231): Sequential(
      (0): Sequential(
        (0): Linear(in_features=2, out_features=256, bias=True)
        (1): ELU(alpha=1.0)
        (2): AlphaDropout(p=0.25, inplace=False)
      )
      (1): Sequential(
        (0): Linear(in_features=256, out_features=256, bias=True)
        (1): ELU(alpha=1.0)
        (2): AlphaDropout(p=0.25, inplace=False)
      )
    )
    (232): Sequential(
      (0): Sequential(
        (0): Linear(in_features=3, out_features=256, bias=True)
        (1): ELU(alpha=1.0)
        (2): AlphaDropout(p=0.25, inplace=False)
      )
      (1): Sequential(
        (0): Linear(in_features=256, out_features=256, bias=True)
        (1): ELU(alpha=1.0)
        (2): AlphaDropout(p=0.25, inplace=False)
      )
    )
    (233): Sequential(
      (0): Sequential(
        (0): Linear(in_features=5, out_features=256, bias=True)
        (1): ELU(alpha=1.0)
        (2): AlphaDropout(p=0.25, inplace=False)
      )
      (1): Sequential(
        (0): Linear(in_features=256, out_features=256, bias=True)
        (1): ELU(alpha=1.0)
        (2): AlphaDropout(p=0.25, inplace=False)
      )
    )
    (234): Sequential(
      (0): Sequential(
        (0): Linear(in_features=4, out_features=256, bias=True)
        (1): ELU(alpha=1.0)
        (2): AlphaDropout(p=0.25, inplace=False)
      )
      (1): Sequential(
        (0): Linear(in_features=256, out_features=256, bias=True)
        (1): ELU(alpha=1.0)
        (2): AlphaDropout(p=0.25, inplace=False)
      )
    )
    (235): Sequential(
      (0): Sequential(
        (0): Linear(in_features=2, out_features=256, bias=True)
        (1): ELU(alpha=1.0)
        (2): AlphaDropout(p=0.25, inplace=False)
      )
      (1): Sequential(
        (0): Linear(in_features=256, out_features=256, bias=True)
        (1): ELU(alpha=1.0)
        (2): AlphaDropout(p=0.25, inplace=False)
      )
    )
    (236): Sequential(
      (0): Sequential(
        (0): Linear(in_features=4, out_features=256, bias=True)
        (1): ELU(alpha=1.0)
        (2): AlphaDropout(p=0.25, inplace=False)
      )
      (1): Sequential(
        (0): Linear(in_features=256, out_features=256, bias=True)
        (1): ELU(alpha=1.0)
        (2): AlphaDropout(p=0.25, inplace=False)
      )
    )
    (237): Sequential(
      (0): Sequential(
        (0): Linear(in_features=10, out_features=256, bias=True)
        (1): ELU(alpha=1.0)
        (2): AlphaDropout(p=0.25, inplace=False)
      )
      (1): Sequential(
        (0): Linear(in_features=256, out_features=256, bias=True)
        (1): ELU(alpha=1.0)
        (2): AlphaDropout(p=0.25, inplace=False)
      )
    )
    (238): Sequential(
      (0): Sequential(
        (0): Linear(in_features=9, out_features=256, bias=True)
        (1): ELU(alpha=1.0)
        (2): AlphaDropout(p=0.25, inplace=False)
      )
      (1): Sequential(
        (0): Linear(in_features=256, out_features=256, bias=True)
        (1): ELU(alpha=1.0)
        (2): AlphaDropout(p=0.25, inplace=False)
      )
    )
    (239): Sequential(
      (0): Sequential(
        (0): Linear(in_features=12, out_features=256, bias=True)
        (1): ELU(alpha=1.0)
        (2): AlphaDropout(p=0.25, inplace=False)
      )
      (1): Sequential(
        (0): Linear(in_features=256, out_features=256, bias=True)
        (1): ELU(alpha=1.0)
        (2): AlphaDropout(p=0.25, inplace=False)
      )
    )
    (240): Sequential(
      (0): Sequential(
        (0): Linear(in_features=9, out_features=256, bias=True)
        (1): ELU(alpha=1.0)
        (2): AlphaDropout(p=0.25, inplace=False)
      )
      (1): Sequential(
        (0): Linear(in_features=256, out_features=256, bias=True)
        (1): ELU(alpha=1.0)
        (2): AlphaDropout(p=0.25, inplace=False)
      )
    )
    (241): Sequential(
      (0): Sequential(
        (0): Linear(in_features=2, out_features=256, bias=True)
        (1): ELU(alpha=1.0)
        (2): AlphaDropout(p=0.25, inplace=False)
      )
      (1): Sequential(
        (0): Linear(in_features=256, out_features=256, bias=True)
        (1): ELU(alpha=1.0)
        (2): AlphaDropout(p=0.25, inplace=False)
      )
    )
    (242): Sequential(
      (0): Sequential(
        (0): Linear(in_features=4, out_features=256, bias=True)
        (1): ELU(alpha=1.0)
        (2): AlphaDropout(p=0.25, inplace=False)
      )
      (1): Sequential(
        (0): Linear(in_features=256, out_features=256, bias=True)
        (1): ELU(alpha=1.0)
        (2): AlphaDropout(p=0.25, inplace=False)
      )
    )
    (243): Sequential(
      (0): Sequential(
        (0): Linear(in_features=3, out_features=256, bias=True)
        (1): ELU(alpha=1.0)
        (2): AlphaDropout(p=0.25, inplace=False)
      )
      (1): Sequential(
        (0): Linear(in_features=256, out_features=256, bias=True)
        (1): ELU(alpha=1.0)
        (2): AlphaDropout(p=0.25, inplace=False)
      )
    )
    (244): Sequential(
      (0): Sequential(
        (0): Linear(in_features=5, out_features=256, bias=True)
        (1): ELU(alpha=1.0)
        (2): AlphaDropout(p=0.25, inplace=False)
      )
      (1): Sequential(
        (0): Linear(in_features=256, out_features=256, bias=True)
        (1): ELU(alpha=1.0)
        (2): AlphaDropout(p=0.25, inplace=False)
      )
    )
    (245): Sequential(
      (0): Sequential(
        (0): Linear(in_features=8, out_features=256, bias=True)
        (1): ELU(alpha=1.0)
        (2): AlphaDropout(p=0.25, inplace=False)
      )
      (1): Sequential(
        (0): Linear(in_features=256, out_features=256, bias=True)
        (1): ELU(alpha=1.0)
        (2): AlphaDropout(p=0.25, inplace=False)
      )
    )
    (246): Sequential(
      (0): Sequential(
        (0): Linear(in_features=2, out_features=256, bias=True)
        (1): ELU(alpha=1.0)
        (2): AlphaDropout(p=0.25, inplace=False)
      )
      (1): Sequential(
        (0): Linear(in_features=256, out_features=256, bias=True)
        (1): ELU(alpha=1.0)
        (2): AlphaDropout(p=0.25, inplace=False)
      )
    )
    (247): Sequential(
      (0): Sequential(
        (0): Linear(in_features=10, out_features=256, bias=True)
        (1): ELU(alpha=1.0)
        (2): AlphaDropout(p=0.25, inplace=False)
      )
      (1): Sequential(
        (0): Linear(in_features=256, out_features=256, bias=True)
        (1): ELU(alpha=1.0)
        (2): AlphaDropout(p=0.25, inplace=False)
      )
    )
    (248): Sequential(
      (0): Sequential(
        (0): Linear(in_features=8, out_features=256, bias=True)
        (1): ELU(alpha=1.0)
        (2): AlphaDropout(p=0.25, inplace=False)
      )
      (1): Sequential(
        (0): Linear(in_features=256, out_features=256, bias=True)
        (1): ELU(alpha=1.0)
        (2): AlphaDropout(p=0.25, inplace=False)
      )
    )
    (249): Sequential(
      (0): Sequential(
        (0): Linear(in_features=50, out_features=256, bias=True)
        (1): ELU(alpha=1.0)
        (2): AlphaDropout(p=0.25, inplace=False)
      )
      (1): Sequential(
        (0): Linear(in_features=256, out_features=256, bias=True)
        (1): ELU(alpha=1.0)
        (2): AlphaDropout(p=0.25, inplace=False)
      )
    )
    (250): Sequential(
      (0): Sequential(
        (0): Linear(in_features=14, out_features=256, bias=True)
        (1): ELU(alpha=1.0)
        (2): AlphaDropout(p=0.25, inplace=False)
      )
      (1): Sequential(
        (0): Linear(in_features=256, out_features=256, bias=True)
        (1): ELU(alpha=1.0)
        (2): AlphaDropout(p=0.25, inplace=False)
      )
    )
    (251): Sequential(
      (0): Sequential(
        (0): Linear(in_features=10, out_features=256, bias=True)
        (1): ELU(alpha=1.0)
        (2): AlphaDropout(p=0.25, inplace=False)
      )
      (1): Sequential(
        (0): Linear(in_features=256, out_features=256, bias=True)
        (1): ELU(alpha=1.0)
        (2): AlphaDropout(p=0.25, inplace=False)
      )
    )
    (252-253): 2 x Sequential(
      (0): Sequential(
        (0): Linear(in_features=15, out_features=256, bias=True)
        (1): ELU(alpha=1.0)
        (2): AlphaDropout(p=0.25, inplace=False)
      )
      (1): Sequential(
        (0): Linear(in_features=256, out_features=256, bias=True)
        (1): ELU(alpha=1.0)
        (2): AlphaDropout(p=0.25, inplace=False)
      )
    )
    (254): Sequential(
      (0): Sequential(
        (0): Linear(in_features=3, out_features=256, bias=True)
        (1): ELU(alpha=1.0)
        (2): AlphaDropout(p=0.25, inplace=False)
      )
      (1): Sequential(
        (0): Linear(in_features=256, out_features=256, bias=True)
        (1): ELU(alpha=1.0)
        (2): AlphaDropout(p=0.25, inplace=False)
      )
    )
    (255): Sequential(
      (0): Sequential(
        (0): Linear(in_features=54, out_features=256, bias=True)
        (1): ELU(alpha=1.0)
        (2): AlphaDropout(p=0.25, inplace=False)
      )
      (1): Sequential(
        (0): Linear(in_features=256, out_features=256, bias=True)
        (1): ELU(alpha=1.0)
        (2): AlphaDropout(p=0.25, inplace=False)
      )
    )
    (256): Sequential(
      (0): Sequential(
        (0): Linear(in_features=3, out_features=256, bias=True)
        (1): ELU(alpha=1.0)
        (2): AlphaDropout(p=0.25, inplace=False)
      )
      (1): Sequential(
        (0): Linear(in_features=256, out_features=256, bias=True)
        (1): ELU(alpha=1.0)
        (2): AlphaDropout(p=0.25, inplace=False)
      )
    )
    (257): Sequential(
      (0): Sequential(
        (0): Linear(in_features=28, out_features=256, bias=True)
        (1): ELU(alpha=1.0)
        (2): AlphaDropout(p=0.25, inplace=False)
      )
      (1): Sequential(
        (0): Linear(in_features=256, out_features=256, bias=True)
        (1): ELU(alpha=1.0)
        (2): AlphaDropout(p=0.25, inplace=False)
      )
    )
    (258): Sequential(
      (0): Sequential(
        (0): Linear(in_features=3, out_features=256, bias=True)
        (1): ELU(alpha=1.0)
        (2): AlphaDropout(p=0.25, inplace=False)
      )
      (1): Sequential(
        (0): Linear(in_features=256, out_features=256, bias=True)
        (1): ELU(alpha=1.0)
        (2): AlphaDropout(p=0.25, inplace=False)
      )
    )
    (259): Sequential(
      (0): Sequential(
        (0): Linear(in_features=12, out_features=256, bias=True)
        (1): ELU(alpha=1.0)
        (2): AlphaDropout(p=0.25, inplace=False)
      )
      (1): Sequential(
        (0): Linear(in_features=256, out_features=256, bias=True)
        (1): ELU(alpha=1.0)
        (2): AlphaDropout(p=0.25, inplace=False)
      )
    )
    (260): Sequential(
      (0): Sequential(
        (0): Linear(in_features=5, out_features=256, bias=True)
        (1): ELU(alpha=1.0)
        (2): AlphaDropout(p=0.25, inplace=False)
      )
      (1): Sequential(
        (0): Linear(in_features=256, out_features=256, bias=True)
        (1): ELU(alpha=1.0)
        (2): AlphaDropout(p=0.25, inplace=False)
      )
    )
    (261): Sequential(
      (0): Sequential(
        (0): Linear(in_features=1, out_features=256, bias=True)
        (1): ELU(alpha=1.0)
        (2): AlphaDropout(p=0.25, inplace=False)
      )
      (1): Sequential(
        (0): Linear(in_features=256, out_features=256, bias=True)
        (1): ELU(alpha=1.0)
        (2): AlphaDropout(p=0.25, inplace=False)
      )
    )
    (262): Sequential(
      (0): Sequential(
        (0): Linear(in_features=2, out_features=256, bias=True)
        (1): ELU(alpha=1.0)
        (2): AlphaDropout(p=0.25, inplace=False)
      )
      (1): Sequential(
        (0): Linear(in_features=256, out_features=256, bias=True)
        (1): ELU(alpha=1.0)
        (2): AlphaDropout(p=0.25, inplace=False)
      )
    )
    (263): Sequential(
      (0): Sequential(
        (0): Linear(in_features=33, out_features=256, bias=True)
        (1): ELU(alpha=1.0)
        (2): AlphaDropout(p=0.25, inplace=False)
      )
      (1): Sequential(
        (0): Linear(in_features=256, out_features=256, bias=True)
        (1): ELU(alpha=1.0)
        (2): AlphaDropout(p=0.25, inplace=False)
      )
    )
    (264): Sequential(
      (0): Sequential(
        (0): Linear(in_features=4, out_features=256, bias=True)
        (1): ELU(alpha=1.0)
        (2): AlphaDropout(p=0.25, inplace=False)
      )
      (1): Sequential(
        (0): Linear(in_features=256, out_features=256, bias=True)
        (1): ELU(alpha=1.0)
        (2): AlphaDropout(p=0.25, inplace=False)
      )
    )
    (265): Sequential(
      (0): Sequential(
        (0): Linear(in_features=9, out_features=256, bias=True)
        (1): ELU(alpha=1.0)
        (2): AlphaDropout(p=0.25, inplace=False)
      )
      (1): Sequential(
        (0): Linear(in_features=256, out_features=256, bias=True)
        (1): ELU(alpha=1.0)
        (2): AlphaDropout(p=0.25, inplace=False)
      )
    )
    (266): Sequential(
      (0): Sequential(
        (0): Linear(in_features=6, out_features=256, bias=True)
        (1): ELU(alpha=1.0)
        (2): AlphaDropout(p=0.25, inplace=False)
      )
      (1): Sequential(
        (0): Linear(in_features=256, out_features=256, bias=True)
        (1): ELU(alpha=1.0)
        (2): AlphaDropout(p=0.25, inplace=False)
      )
    )
    (267): Sequential(
      (0): Sequential(
        (0): Linear(in_features=13, out_features=256, bias=True)
        (1): ELU(alpha=1.0)
        (2): AlphaDropout(p=0.25, inplace=False)
      )
      (1): Sequential(
        (0): Linear(in_features=256, out_features=256, bias=True)
        (1): ELU(alpha=1.0)
        (2): AlphaDropout(p=0.25, inplace=False)
      )
    )
    (268): Sequential(
      (0): Sequential(
        (0): Linear(in_features=2, out_features=256, bias=True)
        (1): ELU(alpha=1.0)
        (2): AlphaDropout(p=0.25, inplace=False)
      )
      (1): Sequential(
        (0): Linear(in_features=256, out_features=256, bias=True)
        (1): ELU(alpha=1.0)
        (2): AlphaDropout(p=0.25, inplace=False)
      )
    )
    (269): Sequential(
      (0): Sequential(
        (0): Linear(in_features=5, out_features=256, bias=True)
        (1): ELU(alpha=1.0)
        (2): AlphaDropout(p=0.25, inplace=False)
      )
      (1): Sequential(
        (0): Linear(in_features=256, out_features=256, bias=True)
        (1): ELU(alpha=1.0)
        (2): AlphaDropout(p=0.25, inplace=False)
      )
    )
    (270): Sequential(
      (0): Sequential(
        (0): Linear(in_features=4, out_features=256, bias=True)
        (1): ELU(alpha=1.0)
        (2): AlphaDropout(p=0.25, inplace=False)
      )
      (1): Sequential(
        (0): Linear(in_features=256, out_features=256, bias=True)
        (1): ELU(alpha=1.0)
        (2): AlphaDropout(p=0.25, inplace=False)
      )
    )
    (271): Sequential(
      (0): Sequential(
        (0): Linear(in_features=2, out_features=256, bias=True)
        (1): ELU(alpha=1.0)
        (2): AlphaDropout(p=0.25, inplace=False)
      )
      (1): Sequential(
        (0): Linear(in_features=256, out_features=256, bias=True)
        (1): ELU(alpha=1.0)
        (2): AlphaDropout(p=0.25, inplace=False)
      )
    )
    (272): Sequential(
      (0): Sequential(
        (0): Linear(in_features=10, out_features=256, bias=True)
        (1): ELU(alpha=1.0)
        (2): AlphaDropout(p=0.25, inplace=False)
      )
      (1): Sequential(
        (0): Linear(in_features=256, out_features=256, bias=True)
        (1): ELU(alpha=1.0)
        (2): AlphaDropout(p=0.25, inplace=False)
      )
    )
    (273): Sequential(
      (0): Sequential(
        (0): Linear(in_features=6, out_features=256, bias=True)
        (1): ELU(alpha=1.0)
        (2): AlphaDropout(p=0.25, inplace=False)
      )
      (1): Sequential(
        (0): Linear(in_features=256, out_features=256, bias=True)
        (1): ELU(alpha=1.0)
        (2): AlphaDropout(p=0.25, inplace=False)
      )
    )
    (274): Sequential(
      (0): Sequential(
        (0): Linear(in_features=15, out_features=256, bias=True)
        (1): ELU(alpha=1.0)
        (2): AlphaDropout(p=0.25, inplace=False)
      )
      (1): Sequential(
        (0): Linear(in_features=256, out_features=256, bias=True)
        (1): ELU(alpha=1.0)
        (2): AlphaDropout(p=0.25, inplace=False)
      )
    )
    (275): Sequential(
      (0): Sequential(
        (0): Linear(in_features=3, out_features=256, bias=True)
        (1): ELU(alpha=1.0)
        (2): AlphaDropout(p=0.25, inplace=False)
      )
      (1): Sequential(
        (0): Linear(in_features=256, out_features=256, bias=True)
        (1): ELU(alpha=1.0)
        (2): AlphaDropout(p=0.25, inplace=False)
      )
    )
    (276): Sequential(
      (0): Sequential(
        (0): Linear(in_features=1, out_features=256, bias=True)
        (1): ELU(alpha=1.0)
        (2): AlphaDropout(p=0.25, inplace=False)
      )
      (1): Sequential(
        (0): Linear(in_features=256, out_features=256, bias=True)
        (1): ELU(alpha=1.0)
        (2): AlphaDropout(p=0.25, inplace=False)
      )
    )
    (277): Sequential(
      (0): Sequential(
        (0): Linear(in_features=3, out_features=256, bias=True)
        (1): ELU(alpha=1.0)
        (2): AlphaDropout(p=0.25, inplace=False)
      )
      (1): Sequential(
        (0): Linear(in_features=256, out_features=256, bias=True)
        (1): ELU(alpha=1.0)
        (2): AlphaDropout(p=0.25, inplace=False)
      )
    )
    (278): Sequential(
      (0): Sequential(
        (0): Linear(in_features=4, out_features=256, bias=True)
        (1): ELU(alpha=1.0)
        (2): AlphaDropout(p=0.25, inplace=False)
      )
      (1): Sequential(
        (0): Linear(in_features=256, out_features=256, bias=True)
        (1): ELU(alpha=1.0)
        (2): AlphaDropout(p=0.25, inplace=False)
      )
    )
    (279-280): 2 x Sequential(
      (0): Sequential(
        (0): Linear(in_features=10, out_features=256, bias=True)
        (1): ELU(alpha=1.0)
        (2): AlphaDropout(p=0.25, inplace=False)
      )
      (1): Sequential(
        (0): Linear(in_features=256, out_features=256, bias=True)
        (1): ELU(alpha=1.0)
        (2): AlphaDropout(p=0.25, inplace=False)
      )
    )
    (281): Sequential(
      (0): Sequential(
        (0): Linear(in_features=13, out_features=256, bias=True)
        (1): ELU(alpha=1.0)
        (2): AlphaDropout(p=0.25, inplace=False)
      )
      (1): Sequential(
        (0): Linear(in_features=256, out_features=256, bias=True)
        (1): ELU(alpha=1.0)
        (2): AlphaDropout(p=0.25, inplace=False)
      )
    )
    (282-284): 3 x Sequential(
      (0): Sequential(
        (0): Linear(in_features=2, out_features=256, bias=True)
        (1): ELU(alpha=1.0)
        (2): AlphaDropout(p=0.25, inplace=False)
      )
      (1): Sequential(
        (0): Linear(in_features=256, out_features=256, bias=True)
        (1): ELU(alpha=1.0)
        (2): AlphaDropout(p=0.25, inplace=False)
      )
    )
    (285): Sequential(
      (0): Sequential(
        (0): Linear(in_features=5, out_features=256, bias=True)
        (1): ELU(alpha=1.0)
        (2): AlphaDropout(p=0.25, inplace=False)
      )
      (1): Sequential(
        (0): Linear(in_features=256, out_features=256, bias=True)
        (1): ELU(alpha=1.0)
        (2): AlphaDropout(p=0.25, inplace=False)
      )
    )
    (286): Sequential(
      (0): Sequential(
        (0): Linear(in_features=1, out_features=256, bias=True)
        (1): ELU(alpha=1.0)
        (2): AlphaDropout(p=0.25, inplace=False)
      )
      (1): Sequential(
        (0): Linear(in_features=256, out_features=256, bias=True)
        (1): ELU(alpha=1.0)
        (2): AlphaDropout(p=0.25, inplace=False)
      )
    )
    (287): Sequential(
      (0): Sequential(
        (0): Linear(in_features=7, out_features=256, bias=True)
        (1): ELU(alpha=1.0)
        (2): AlphaDropout(p=0.25, inplace=False)
      )
      (1): Sequential(
        (0): Linear(in_features=256, out_features=256, bias=True)
        (1): ELU(alpha=1.0)
        (2): AlphaDropout(p=0.25, inplace=False)
      )
    )
    (288): Sequential(
      (0): Sequential(
        (0): Linear(in_features=12, out_features=256, bias=True)
        (1): ELU(alpha=1.0)
        (2): AlphaDropout(p=0.25, inplace=False)
      )
      (1): Sequential(
        (0): Linear(in_features=256, out_features=256, bias=True)
        (1): ELU(alpha=1.0)
        (2): AlphaDropout(p=0.25, inplace=False)
      )
    )
    (289-290): 2 x Sequential(
      (0): Sequential(
        (0): Linear(in_features=3, out_features=256, bias=True)
        (1): ELU(alpha=1.0)
        (2): AlphaDropout(p=0.25, inplace=False)
      )
      (1): Sequential(
        (0): Linear(in_features=256, out_features=256, bias=True)
        (1): ELU(alpha=1.0)
        (2): AlphaDropout(p=0.25, inplace=False)
      )
    )
    (291): Sequential(
      (0): Sequential(
        (0): Linear(in_features=38, out_features=256, bias=True)
        (1): ELU(alpha=1.0)
        (2): AlphaDropout(p=0.25, inplace=False)
      )
      (1): Sequential(
        (0): Linear(in_features=256, out_features=256, bias=True)
        (1): ELU(alpha=1.0)
        (2): AlphaDropout(p=0.25, inplace=False)
      )
    )
    (292-293): 2 x Sequential(
      (0): Sequential(
        (0): Linear(in_features=1, out_features=256, bias=True)
        (1): ELU(alpha=1.0)
        (2): AlphaDropout(p=0.25, inplace=False)
      )
      (1): Sequential(
        (0): Linear(in_features=256, out_features=256, bias=True)
        (1): ELU(alpha=1.0)
        (2): AlphaDropout(p=0.25, inplace=False)
      )
    )
    (294-295): 2 x Sequential(
      (0): Sequential(
        (0): Linear(in_features=2, out_features=256, bias=True)
        (1): ELU(alpha=1.0)
        (2): AlphaDropout(p=0.25, inplace=False)
      )
      (1): Sequential(
        (0): Linear(in_features=256, out_features=256, bias=True)
        (1): ELU(alpha=1.0)
        (2): AlphaDropout(p=0.25, inplace=False)
      )
    )
    (296): Sequential(
      (0): Sequential(
        (0): Linear(in_features=27, out_features=256, bias=True)
        (1): ELU(alpha=1.0)
        (2): AlphaDropout(p=0.25, inplace=False)
      )
      (1): Sequential(
        (0): Linear(in_features=256, out_features=256, bias=True)
        (1): ELU(alpha=1.0)
        (2): AlphaDropout(p=0.25, inplace=False)
      )
    )
    (297): Sequential(
      (0): Sequential(
        (0): Linear(in_features=1, out_features=256, bias=True)
        (1): ELU(alpha=1.0)
        (2): AlphaDropout(p=0.25, inplace=False)
      )
      (1): Sequential(
        (0): Linear(in_features=256, out_features=256, bias=True)
        (1): ELU(alpha=1.0)
        (2): AlphaDropout(p=0.25, inplace=False)
      )
    )
    (298): Sequential(
      (0): Sequential(
        (0): Linear(in_features=3, out_features=256, bias=True)
        (1): ELU(alpha=1.0)
        (2): AlphaDropout(p=0.25, inplace=False)
      )
      (1): Sequential(
        (0): Linear(in_features=256, out_features=256, bias=True)
        (1): ELU(alpha=1.0)
        (2): AlphaDropout(p=0.25, inplace=False)
      )
    )
    (299-300): 2 x Sequential(
      (0): Sequential(
        (0): Linear(in_features=8, out_features=256, bias=True)
        (1): ELU(alpha=1.0)
        (2): AlphaDropout(p=0.25, inplace=False)
      )
      (1): Sequential(
        (0): Linear(in_features=256, out_features=256, bias=True)
        (1): ELU(alpha=1.0)
        (2): AlphaDropout(p=0.25, inplace=False)
      )
    )
    (301): Sequential(
      (0): Sequential(
        (0): Linear(in_features=11, out_features=256, bias=True)
        (1): ELU(alpha=1.0)
        (2): AlphaDropout(p=0.25, inplace=False)
      )
      (1): Sequential(
        (0): Linear(in_features=256, out_features=256, bias=True)
        (1): ELU(alpha=1.0)
        (2): AlphaDropout(p=0.25, inplace=False)
      )
    )
    (302): Sequential(
      (0): Sequential(
        (0): Linear(in_features=7, out_features=256, bias=True)
        (1): ELU(alpha=1.0)
        (2): AlphaDropout(p=0.25, inplace=False)
      )
      (1): Sequential(
        (0): Linear(in_features=256, out_features=256, bias=True)
        (1): ELU(alpha=1.0)
        (2): AlphaDropout(p=0.25, inplace=False)
      )
    )
    (303): Sequential(
      (0): Sequential(
        (0): Linear(in_features=2, out_features=256, bias=True)
        (1): ELU(alpha=1.0)
        (2): AlphaDropout(p=0.25, inplace=False)
      )
      (1): Sequential(
        (0): Linear(in_features=256, out_features=256, bias=True)
        (1): ELU(alpha=1.0)
        (2): AlphaDropout(p=0.25, inplace=False)
      )
    )
    (304): Sequential(
      (0): Sequential(
        (0): Linear(in_features=9, out_features=256, bias=True)
        (1): ELU(alpha=1.0)
        (2): AlphaDropout(p=0.25, inplace=False)
      )
      (1): Sequential(
        (0): Linear(in_features=256, out_features=256, bias=True)
        (1): ELU(alpha=1.0)
        (2): AlphaDropout(p=0.25, inplace=False)
      )
    )
    (305): Sequential(
      (0): Sequential(
        (0): Linear(in_features=10, out_features=256, bias=True)
        (1): ELU(alpha=1.0)
        (2): AlphaDropout(p=0.25, inplace=False)
      )
      (1): Sequential(
        (0): Linear(in_features=256, out_features=256, bias=True)
        (1): ELU(alpha=1.0)
        (2): AlphaDropout(p=0.25, inplace=False)
      )
    )
    (306): Sequential(
      (0): Sequential(
        (0): Linear(in_features=9, out_features=256, bias=True)
        (1): ELU(alpha=1.0)
        (2): AlphaDropout(p=0.25, inplace=False)
      )
      (1): Sequential(
        (0): Linear(in_features=256, out_features=256, bias=True)
        (1): ELU(alpha=1.0)
        (2): AlphaDropout(p=0.25, inplace=False)
      )
    )
    (307): Sequential(
      (0): Sequential(
        (0): Linear(in_features=3, out_features=256, bias=True)
        (1): ELU(alpha=1.0)
        (2): AlphaDropout(p=0.25, inplace=False)
      )
      (1): Sequential(
        (0): Linear(in_features=256, out_features=256, bias=True)
        (1): ELU(alpha=1.0)
        (2): AlphaDropout(p=0.25, inplace=False)
      )
    )
    (308): Sequential(
      (0): Sequential(
        (0): Linear(in_features=6, out_features=256, bias=True)
        (1): ELU(alpha=1.0)
        (2): AlphaDropout(p=0.25, inplace=False)
      )
      (1): Sequential(
        (0): Linear(in_features=256, out_features=256, bias=True)
        (1): ELU(alpha=1.0)
        (2): AlphaDropout(p=0.25, inplace=False)
      )
    )
    (309-310): 2 x Sequential(
      (0): Sequential(
        (0): Linear(in_features=4, out_features=256, bias=True)
        (1): ELU(alpha=1.0)
        (2): AlphaDropout(p=0.25, inplace=False)
      )
      (1): Sequential(
        (0): Linear(in_features=256, out_features=256, bias=True)
        (1): ELU(alpha=1.0)
        (2): AlphaDropout(p=0.25, inplace=False)
      )
    )
    (311): Sequential(
      (0): Sequential(
        (0): Linear(in_features=7, out_features=256, bias=True)
        (1): ELU(alpha=1.0)
        (2): AlphaDropout(p=0.25, inplace=False)
      )
      (1): Sequential(
        (0): Linear(in_features=256, out_features=256, bias=True)
        (1): ELU(alpha=1.0)
        (2): AlphaDropout(p=0.25, inplace=False)
      )
    )
    (312): Sequential(
      (0): Sequential(
        (0): Linear(in_features=6, out_features=256, bias=True)
        (1): ELU(alpha=1.0)
        (2): AlphaDropout(p=0.25, inplace=False)
      )
      (1): Sequential(
        (0): Linear(in_features=256, out_features=256, bias=True)
        (1): ELU(alpha=1.0)
        (2): AlphaDropout(p=0.25, inplace=False)
      )
    )
    (313): Sequential(
      (0): Sequential(
        (0): Linear(in_features=13, out_features=256, bias=True)
        (1): ELU(alpha=1.0)
        (2): AlphaDropout(p=0.25, inplace=False)
      )
      (1): Sequential(
        (0): Linear(in_features=256, out_features=256, bias=True)
        (1): ELU(alpha=1.0)
        (2): AlphaDropout(p=0.25, inplace=False)
      )
    )
    (314): Sequential(
      (0): Sequential(
        (0): Linear(in_features=10, out_features=256, bias=True)
        (1): ELU(alpha=1.0)
        (2): AlphaDropout(p=0.25, inplace=False)
      )
      (1): Sequential(
        (0): Linear(in_features=256, out_features=256, bias=True)
        (1): ELU(alpha=1.0)
        (2): AlphaDropout(p=0.25, inplace=False)
      )
    )
    (315): Sequential(
      (0): Sequential(
        (0): Linear(in_features=17, out_features=256, bias=True)
        (1): ELU(alpha=1.0)
        (2): AlphaDropout(p=0.25, inplace=False)
      )
      (1): Sequential(
        (0): Linear(in_features=256, out_features=256, bias=True)
        (1): ELU(alpha=1.0)
        (2): AlphaDropout(p=0.25, inplace=False)
      )
    )
    (316): Sequential(
      (0): Sequential(
        (0): Linear(in_features=4, out_features=256, bias=True)
        (1): ELU(alpha=1.0)
        (2): AlphaDropout(p=0.25, inplace=False)
      )
      (1): Sequential(
        (0): Linear(in_features=256, out_features=256, bias=True)
        (1): ELU(alpha=1.0)
        (2): AlphaDropout(p=0.25, inplace=False)
      )
    )
    (317): Sequential(
      (0): Sequential(
        (0): Linear(in_features=20, out_features=256, bias=True)
        (1): ELU(alpha=1.0)
        (2): AlphaDropout(p=0.25, inplace=False)
      )
      (1): Sequential(
        (0): Linear(in_features=256, out_features=256, bias=True)
        (1): ELU(alpha=1.0)
        (2): AlphaDropout(p=0.25, inplace=False)
      )
    )
    (318): Sequential(
      (0): Sequential(
        (0): Linear(in_features=9, out_features=256, bias=True)
        (1): ELU(alpha=1.0)
        (2): AlphaDropout(p=0.25, inplace=False)
      )
      (1): Sequential(
        (0): Linear(in_features=256, out_features=256, bias=True)
        (1): ELU(alpha=1.0)
        (2): AlphaDropout(p=0.25, inplace=False)
      )
    )
    (319): Sequential(
      (0): Sequential(
        (0): Linear(in_features=11, out_features=256, bias=True)
        (1): ELU(alpha=1.0)
        (2): AlphaDropout(p=0.25, inplace=False)
      )
      (1): Sequential(
        (0): Linear(in_features=256, out_features=256, bias=True)
        (1): ELU(alpha=1.0)
        (2): AlphaDropout(p=0.25, inplace=False)
      )
    )
    (320): Sequential(
      (0): Sequential(
        (0): Linear(in_features=13, out_features=256, bias=True)
        (1): ELU(alpha=1.0)
        (2): AlphaDropout(p=0.25, inplace=False)
      )
      (1): Sequential(
        (0): Linear(in_features=256, out_features=256, bias=True)
        (1): ELU(alpha=1.0)
        (2): AlphaDropout(p=0.25, inplace=False)
      )
    )
    (321): Sequential(
      (0): Sequential(
        (0): Linear(in_features=5, out_features=256, bias=True)
        (1): ELU(alpha=1.0)
        (2): AlphaDropout(p=0.25, inplace=False)
      )
      (1): Sequential(
        (0): Linear(in_features=256, out_features=256, bias=True)
        (1): ELU(alpha=1.0)
        (2): AlphaDropout(p=0.25, inplace=False)
      )
    )
    (322): Sequential(
      (0): Sequential(
        (0): Linear(in_features=7, out_features=256, bias=True)
        (1): ELU(alpha=1.0)
        (2): AlphaDropout(p=0.25, inplace=False)
      )
      (1): Sequential(
        (0): Linear(in_features=256, out_features=256, bias=True)
        (1): ELU(alpha=1.0)
        (2): AlphaDropout(p=0.25, inplace=False)
      )
    )
    (323): Sequential(
      (0): Sequential(
        (0): Linear(in_features=17, out_features=256, bias=True)
        (1): ELU(alpha=1.0)
        (2): AlphaDropout(p=0.25, inplace=False)
      )
      (1): Sequential(
        (0): Linear(in_features=256, out_features=256, bias=True)
        (1): ELU(alpha=1.0)
        (2): AlphaDropout(p=0.25, inplace=False)
      )
    )
    (324): Sequential(
      (0): Sequential(
        (0): Linear(in_features=1, out_features=256, bias=True)
        (1): ELU(alpha=1.0)
        (2): AlphaDropout(p=0.25, inplace=False)
      )
      (1): Sequential(
        (0): Linear(in_features=256, out_features=256, bias=True)
        (1): ELU(alpha=1.0)
        (2): AlphaDropout(p=0.25, inplace=False)
      )
    )
    (325): Sequential(
      (0): Sequential(
        (0): Linear(in_features=4, out_features=256, bias=True)
        (1): ELU(alpha=1.0)
        (2): AlphaDropout(p=0.25, inplace=False)
      )
      (1): Sequential(
        (0): Linear(in_features=256, out_features=256, bias=True)
        (1): ELU(alpha=1.0)
        (2): AlphaDropout(p=0.25, inplace=False)
      )
    )
    (326): Sequential(
      (0): Sequential(
        (0): Linear(in_features=18, out_features=256, bias=True)
        (1): ELU(alpha=1.0)
        (2): AlphaDropout(p=0.25, inplace=False)
      )
      (1): Sequential(
        (0): Linear(in_features=256, out_features=256, bias=True)
        (1): ELU(alpha=1.0)
        (2): AlphaDropout(p=0.25, inplace=False)
      )
    )
    (327): Sequential(
      (0): Sequential(
        (0): Linear(in_features=14, out_features=256, bias=True)
        (1): ELU(alpha=1.0)
        (2): AlphaDropout(p=0.25, inplace=False)
      )
      (1): Sequential(
        (0): Linear(in_features=256, out_features=256, bias=True)
        (1): ELU(alpha=1.0)
        (2): AlphaDropout(p=0.25, inplace=False)
      )
    )
    (328): Sequential(
      (0): Sequential(
        (0): Linear(in_features=10, out_features=256, bias=True)
        (1): ELU(alpha=1.0)
        (2): AlphaDropout(p=0.25, inplace=False)
      )
      (1): Sequential(
        (0): Linear(in_features=256, out_features=256, bias=True)
        (1): ELU(alpha=1.0)
        (2): AlphaDropout(p=0.25, inplace=False)
      )
    )
  )
  (wsi_mlp): Sequential(
    (0): Linear(in_features=1024, out_features=1024, bias=True)
    (1): ReLU()
    (2): Linear(in_features=1024, out_features=256, bias=True)
  )
  (slot_attention_wsi): MultiHeadSlotAttention(
    (norm_input): LayerNorm((256,), eps=1e-05, elementwise_affine=True, bias=True)
    (norm_slots): LayerNorm((256,), eps=1e-05, elementwise_affine=True, bias=True)
    (split_heads): Rearrange('b n (h d) -> b h n d', h=8)
    (to_q): Linear(in_features=256, out_features=512, bias=True)
    (to_k): Linear(in_features=256, out_features=512, bias=True)
    (to_v): Linear(in_features=256, out_features=512, bias=True)
    (merge_heads): Rearrange('b h n d -> b n (h d)')
    (combine_heads): Linear(in_features=512, out_features=256, bias=True)
    (gru): GRUCell(256, 256)
    (norm_pre_ff): LayerNorm((256,), eps=1e-05, elementwise_affine=True, bias=True)
    (mlp): Sequential(
      (0): Linear(in_features=256, out_features=256, bias=True)
      (1): ReLU()
      (2): Linear(in_features=256, out_features=256, bias=True)
    )
  )
  (slot_attention_omic): MultiHeadSlotAttention(
    (norm_input): LayerNorm((256,), eps=1e-05, elementwise_affine=True, bias=True)
    (norm_slots): LayerNorm((256,), eps=1e-05, elementwise_affine=True, bias=True)
    (split_heads): Rearrange('b n (h d) -> b h n d', h=8)
    (to_q): Linear(in_features=256, out_features=512, bias=True)
    (to_k): Linear(in_features=256, out_features=512, bias=True)
    (to_v): Linear(in_features=256, out_features=512, bias=True)
    (merge_heads): Rearrange('b h n d -> b n (h d)')
    (combine_heads): Linear(in_features=512, out_features=256, bias=True)
    (gru): GRUCell(256, 256)
    (norm_pre_ff): LayerNorm((256,), eps=1e-05, elementwise_affine=True, bias=True)
    (mlp): Sequential(
      (0): Linear(in_features=256, out_features=256, bias=True)
      (1): ReLU()
      (2): Linear(in_features=256, out_features=256, bias=True)
    )
  )
  (fusion): MultiScaleOTFusion(
    (cost_convs): ModuleDict(
      (cosine): Linear(in_features=1, out_features=256, bias=True)
      (euclidean): Sequential(
        (0): Linear(in_features=1, out_features=128, bias=True)
        (1): GELU(approximate='none')
        (2): Linear(in_features=128, out_features=256, bias=True)
      )
      (dot): Linear(in_features=1, out_features=256, bias=True)
    )
    (proj): Linear(in_features=768, out_features=256, bias=True)
    (norm): LayerNorm((256,), eps=1e-05, elementwise_affine=True, bias=True)
    (cross_attn): TransformerEncoderLayer(
      (self_attn): MultiheadAttention(
        (out_proj): NonDynamicallyQuantizableLinear(in_features=256, out_features=256, bias=True)
      )
      (linear1): Linear(in_features=256, out_features=512, bias=True)
      (dropout): Dropout(p=0.1, inplace=False)
      (linear2): Linear(in_features=512, out_features=256, bias=True)
      (norm1): LayerNorm((256,), eps=1e-05, elementwise_affine=True, bias=True)
      (norm2): LayerNorm((256,), eps=1e-05, elementwise_affine=True, bias=True)
      (dropout1): Dropout(p=0.1, inplace=False)
      (dropout2): Dropout(p=0.1, inplace=False)
    )
    (refine): Sequential(
      (0): Linear(in_features=256, out_features=256, bias=True)
      (1): GELU(approximate='none')
      (2): Dropout(p=0.1, inplace=False)
    )
  )
  (event_encoder): TransformerEncoder(
    (layers): ModuleList(
      (0-1): 2 x TransformerEncoderLayer(
        (self_attn): MultiheadAttention(
          (out_proj): NonDynamicallyQuantizableLinear(in_features=256, out_features=256, bias=True)
        )
        (linear1): Linear(in_features=256, out_features=512, bias=True)
        (dropout): Dropout(p=0.1, inplace=False)
        (linear2): Linear(in_features=512, out_features=256, bias=True)
        (norm1): LayerNorm((256,), eps=1e-05, elementwise_affine=True, bias=True)
        (norm2): LayerNorm((256,), eps=1e-05, elementwise_affine=True, bias=True)
        (dropout1): Dropout(p=0.1, inplace=False)
        (dropout2): Dropout(p=0.1, inplace=False)
      )
    )
  )
  (event_norm): LayerNorm((256,), eps=1e-05, elementwise_affine=True, bias=True)
  (event_hazard): Linear(in_features=256, out_features=4, bias=True)
  (event_gate): Sequential(
    (0): Linear(in_features=256, out_features=128, bias=True)
    (1): GELU(approximate='none')
    (2): Dropout(p=0.1, inplace=False)
    (3): Linear(in_features=128, out_features=1, bias=True)
  )
  (prognostic_pair_cost): Sequential(
    (0): LayerNorm((1024,), eps=1e-05, elementwise_affine=True, bias=True)
    (1): Linear(in_features=1024, out_features=256, bias=True)
    (2): GELU(approximate='none')
    (3): Linear(in_features=256, out_features=1, bias=True)
  )
  (stage_head): Linear(in_features=256, out_features=4, bias=True)
  (stage_pair_cost): Sequential(
    (0): LayerNorm((1024,), eps=1e-05, elementwise_affine=True, bias=True)
    (1): Linear(in_features=1024, out_features=256, bias=True)
    (2): GELU(approximate='none')
    (3): Linear(in_features=256, out_features=4, bias=True)
  )
  (stage_score): Linear(in_features=256, out_features=1, bias=True)
  (evidence_gate): Sequential(
    (0): LayerNorm((1280,), eps=1e-05, elementwise_affine=True, bias=True)
    (1): Linear(in_features=1280, out_features=256, bias=True)
    (2): GELU(approximate='none')
    (3): Linear(in_features=256, out_features=1, bias=True)
  )
)
Total number of parameters: 30371600 
Total number of trainable parameters: 30371600 
